{"backend": "tensorflow", "keras_version": "2.2.4", "config": {"output_layers": [["dense_2", 0, 0]], "name": "model_1", "layers": [{"name": "input_1", "config": {"dtype": "float32", "name": "input_1", "batch_input_shape": [null, 299, 299, 3], "sparse": false}, "class_name": "InputLayer", "inbound_nodes": []}, {"name": "conv2d_1", "config": {"bias_initializer": {"config": {}, "class_name": "Zeros"}, "activity_regularizer": null, "activation": "linear", "kernel_size": [3, 3], "use_bias": false, "kernel_initializer": {"config": {"mode": "fan_avg", "seed": null, "scale": 1.0, "distribution": "uniform"}, "class_name": "VarianceScaling"}, "kernel_regularizer": null, "dilation_rate": [1, 1], "bias_constraint": null, "padding": "valid", "name": "conv2d_1", "trainable": true, "kernel_constraint": null, "data_format": "channels_last", "bias_regularizer": null, "strides": [2, 2], "filters": 32}, "class_name": "Conv2D", "inbound_nodes": [[["input_1", 0, 0, {}]]]}, {"name": "batch_normalization_1", "config": {"epsilon": 0.001, "name": "batch_normalization_1", "scale": false, "moving_mean_initializer": {"config": {}, "class_name": "Zeros"}, "gamma_regularizer": null, "gamma_initializer": {"config": {}, "class_name": "Ones"}, "beta_regularizer": null, "axis": 3, "moving_variance_initializer": {"config": {}, "class_name": "Ones"}, "gamma_constraint": null, "trainable": true, "beta_constraint": null, "center": true, "beta_initializer": {"config": {}, "class_name": "Zeros"}, "momentum": 0.99}, "class_name": "BatchNormalization", "inbound_nodes": [[["conv2d_1", 0, 0, {}]]]}, {"name": "activation_1", "config": {"trainable": true, "activation": "relu", "name": "activation_1"}, "class_name": "Activation", "inbound_nodes": [[["batch_normalization_1", 0, 0, {}]]]}, {"name": "conv2d_2", "config": {"bias_initializer": {"config": {}, "class_name": "Zeros"}, "activity_regularizer": null, "activation": "linear", "kernel_size": [3, 3], "use_bias": false, "kernel_initializer": {"config": {"mode": "fan_avg", "seed": null, "scale": 1.0, "distribution": "uniform"}, "class_name": "VarianceScaling"}, "kernel_regularizer": null, "dilation_rate": [1, 1], "bias_constraint": null, "padding": "valid", "name": "conv2d_2", "trainable": true, "kernel_constraint": null, "data_format": "channels_last", "bias_regularizer": null, "strides": [1, 1], "filters": 32}, "class_name": "Conv2D", "inbound_nodes": [[["activation_1", 0, 0, {}]]]}, {"name": "batch_normalization_2", "config": {"epsilon": 0.001, "name": "batch_normalization_2", "scale": false, "moving_mean_initializer": {"config": {}, "class_name": "Zeros"}, "gamma_regularizer": null, "gamma_initializer": {"config": {}, "class_name": "Ones"}, "beta_regularizer": null, "axis": 3, "moving_variance_initializer": {"config": {}, "class_name": "Ones"}, "gamma_constraint": null, "trainable": true, "beta_constraint": null, "center": true, "beta_initializer": {"config": {}, "class_name": "Zeros"}, "momentum": 0.99}, "class_name": "BatchNormalization", "inbound_nodes": [[["conv2d_2", 0, 0, {}]]]}, {"name": "activation_2", "config": {"trainable": true, "activation": "relu", "name": "activation_2"}, "class_name": "Activation", "inbound_nodes": [[["batch_normalization_2", 0, 0, {}]]]}, {"name": "conv2d_3", "config": {"bias_initializer": {"config": {}, "class_name": "Zeros"}, "activity_regularizer": null, "activation": "linear", "kernel_size": [3, 3], "use_bias": false, "kernel_initializer": {"config": {"mode": "fan_avg", "seed": null, "scale": 1.0, "distribution": "uniform"}, "class_name": "VarianceScaling"}, "kernel_regularizer": null, "dilation_rate": [1, 1], "bias_constraint": null, "padding": "same", "name": "conv2d_3", "trainable": true, "kernel_constraint": null, "data_format": "channels_last", "bias_regularizer": null, "strides": [1, 1], "filters": 64}, "class_name": "Conv2D", "inbound_nodes": [[["activation_2", 0, 0, {}]]]}, {"name": "batch_normalization_3", "config": {"epsilon": 0.001, "name": "batch_normalization_3", "scale": false, "moving_mean_initializer": {"config": {}, "class_name": "Zeros"}, "gamma_regularizer": null, "gamma_initializer": {"config": {}, "class_name": "Ones"}, "beta_regularizer": null, "axis": 3, "moving_variance_initializer": {"config": {}, "class_name": "Ones"}, "gamma_constraint": null, "trainable": true, "beta_constraint": null, "center": true, "beta_initializer": {"config": {}, "class_name": "Zeros"}, "momentum": 0.99}, "class_name": "BatchNormalization", "inbound_nodes": [[["conv2d_3", 0, 0, {}]]]}, {"name": "activation_3", "config": {"trainable": true, "activation": "relu", "name": "activation_3"}, "class_name": "Activation", "inbound_nodes": [[["batch_normalization_3", 0, 0, {}]]]}, {"name": "max_pooling2d_1", "config": {"name": "max_pooling2d_1", "pool_size": [3, 3], "data_format": "channels_last", "trainable": true, "strides": [2, 2], "padding": "valid"}, "class_name": "MaxPooling2D", "inbound_nodes": [[["activation_3", 0, 0, {}]]]}, {"name": "conv2d_4", "config": {"bias_initializer": {"config": {}, "class_name": "Zeros"}, "activity_regularizer": null, "activation": "linear", "kernel_size": [1, 1], "use_bias": false, "kernel_initializer": {"config": {"mode": "fan_avg", "seed": null, "scale": 1.0, "distribution": "uniform"}, "class_name": "VarianceScaling"}, "kernel_regularizer": null, "dilation_rate": [1, 1], "bias_constraint": null, "padding": "valid", "name": "conv2d_4", "trainable": true, "kernel_constraint": null, "data_format": "channels_last", "bias_regularizer": null, "strides": [1, 1], "filters": 80}, "class_name": "Conv2D", "inbound_nodes": [[["max_pooling2d_1", 0, 0, {}]]]}, {"name": "batch_normalization_4", "config": {"epsilon": 0.001, "name": "batch_normalization_4", "scale": false, "moving_mean_initializer": {"config": {}, "class_name": "Zeros"}, "gamma_regularizer": null, "gamma_initializer": {"config": {}, "class_name": "Ones"}, "beta_regularizer": null, "axis": 3, "moving_variance_initializer": {"config": {}, "class_name": "Ones"}, "gamma_constraint": null, "trainable": true, "beta_constraint": null, "center": true, "beta_initializer": {"config": {}, "class_name": "Zeros"}, "momentum": 0.99}, "class_name": "BatchNormalization", "inbound_nodes": [[["conv2d_4", 0, 0, {}]]]}, {"name": "activation_4", "config": {"trainable": true, "activation": "relu", "name": "activation_4"}, "class_name": "Activation", "inbound_nodes": [[["batch_normalization_4", 0, 0, {}]]]}, {"name": "conv2d_5", "config": {"bias_initializer": {"config": {}, "class_name": "Zeros"}, "activity_regularizer": null, "activation": "linear", "kernel_size": [3, 3], "use_bias": false, "kernel_initializer": {"config": {"mode": "fan_avg", "seed": null, "scale": 1.0, "distribution": "uniform"}, "class_name": "VarianceScaling"}, "kernel_regularizer": null, "dilation_rate": [1, 1], "bias_constraint": null, "padding": "valid", "name": "conv2d_5", "trainable": true, "kernel_constraint": null, "data_format": "channels_last", "bias_regularizer": null, "strides": [1, 1], "filters": 192}, "class_name": "Conv2D", "inbound_nodes": [[["activation_4", 0, 0, {}]]]}, {"name": "batch_normalization_5", "config": {"epsilon": 0.001, "name": "batch_normalization_5", "scale": false, "moving_mean_initializer": {"config": {}, "class_name": "Zeros"}, "gamma_regularizer": null, "gamma_initializer": {"config": {}, "class_name": "Ones"}, "beta_regularizer": null, "axis": 3, "moving_variance_initializer": {"config": {}, "class_name": "Ones"}, "gamma_constraint": null, "trainable": true, "beta_constraint": null, "center": true, "beta_initializer": {"config": {}, "class_name": "Zeros"}, "momentum": 0.99}, "class_name": "BatchNormalization", "inbound_nodes": [[["conv2d_5", 0, 0, {}]]]}, {"name": "activation_5", "config": {"trainable": true, "activation": "relu", "name": "activation_5"}, "class_name": "Activation", "inbound_nodes": [[["batch_normalization_5", 0, 0, {}]]]}, {"name": "max_pooling2d_2", "config": {"name": "max_pooling2d_2", "pool_size": [3, 3], "data_format": "channels_last", "trainable": true, "strides": [2, 2], "padding": "valid"}, "class_name": "MaxPooling2D", "inbound_nodes": [[["activation_5", 0, 0, {}]]]}, {"name": "conv2d_9", "config": {"bias_initializer": {"config": {}, "class_name": "Zeros"}, "activity_regularizer": null, "activation": "linear", "kernel_size": [1, 1], "use_bias": false, "kernel_initializer": {"config": {"mode": "fan_avg", "seed": null, "scale": 1.0, "distribution": "uniform"}, "class_name": "VarianceScaling"}, "kernel_regularizer": null, "dilation_rate": [1, 1], "bias_constraint": null, "padding": "same", "name": "conv2d_9", "trainable": true, "kernel_constraint": null, "data_format": "channels_last", "bias_regularizer": null, "strides": [1, 1], "filters": 64}, "class_name": "Conv2D", "inbound_nodes": [[["max_pooling2d_2", 0, 0, {}]]]}, {"name": "batch_normalization_9", "config": {"epsilon": 0.001, "name": "batch_normalization_9", "scale": false, "moving_mean_initializer": {"config": {}, "class_name": "Zeros"}, "gamma_regularizer": null, "gamma_initializer": {"config": {}, "class_name": "Ones"}, "beta_regularizer": null, "axis": 3, "moving_variance_initializer": {"config": {}, "class_name": "Ones"}, "gamma_constraint": null, "trainable": true, "beta_constraint": null, "center": true, "beta_initializer": {"config": {}, "class_name": "Zeros"}, "momentum": 0.99}, "class_name": "BatchNormalization", "inbound_nodes": [[["conv2d_9", 0, 0, {}]]]}, {"name": "activation_9", "config": {"trainable": true, "activation": "relu", "name": "activation_9"}, "class_name": "Activation", "inbound_nodes": [[["batch_normalization_9", 0, 0, {}]]]}, {"name": "conv2d_7", "config": {"bias_initializer": {"config": {}, "class_name": "Zeros"}, "activity_regularizer": null, "activation": "linear", "kernel_size": [1, 1], "use_bias": false, "kernel_initializer": {"config": {"mode": "fan_avg", "seed": null, "scale": 1.0, "distribution": "uniform"}, "class_name": "VarianceScaling"}, "kernel_regularizer": null, "dilation_rate": [1, 1], "bias_constraint": null, "padding": "same", "name": "conv2d_7", "trainable": true, "kernel_constraint": null, "data_format": "channels_last", "bias_regularizer": null, "strides": [1, 1], "filters": 48}, "class_name": "Conv2D", "inbound_nodes": [[["max_pooling2d_2", 0, 0, {}]]]}, {"name": "conv2d_10", "config": {"bias_initializer": {"config": {}, "class_name": "Zeros"}, "activity_regularizer": null, "activation": "linear", "kernel_size": [3, 3], "use_bias": false, "kernel_initializer": {"config": {"mode": "fan_avg", "seed": null, "scale": 1.0, "distribution": "uniform"}, "class_name": "VarianceScaling"}, "kernel_regularizer": null, "dilation_rate": [1, 1], "bias_constraint": null, "padding": "same", "name": "conv2d_10", "trainable": true, "kernel_constraint": null, "data_format": "channels_last", "bias_regularizer": null, "strides": [1, 1], "filters": 96}, "class_name": "Conv2D", "inbound_nodes": [[["activation_9", 0, 0, {}]]]}, {"name": "batch_normalization_7", "config": {"epsilon": 0.001, "name": "batch_normalization_7", "scale": false, "moving_mean_initializer": {"config": {}, "class_name": "Zeros"}, "gamma_regularizer": null, "gamma_initializer": {"config": {}, "class_name": "Ones"}, "beta_regularizer": null, "axis": 3, "moving_variance_initializer": {"config": {}, "class_name": "Ones"}, "gamma_constraint": null, "trainable": true, "beta_constraint": null, "center": true, "beta_initializer": {"config": {}, "class_name": "Zeros"}, "momentum": 0.99}, "class_name": "BatchNormalization", "inbound_nodes": [[["conv2d_7", 0, 0, {}]]]}, {"name": "batch_normalization_10", "config": {"epsilon": 0.001, "name": "batch_normalization_10", "scale": false, "moving_mean_initializer": {"config": {}, "class_name": "Zeros"}, "gamma_regularizer": null, "gamma_initializer": {"config": {}, "class_name": "Ones"}, "beta_regularizer": null, "axis": 3, "moving_variance_initializer": {"config": {}, "class_name": "Ones"}, "gamma_constraint": null, "trainable": true, "beta_constraint": null, "center": true, "beta_initializer": {"config": {}, "class_name": "Zeros"}, "momentum": 0.99}, "class_name": "BatchNormalization", "inbound_nodes": [[["conv2d_10", 0, 0, {}]]]}, {"name": "activation_7", "config": {"trainable": true, "activation": "relu", "name": "activation_7"}, "class_name": "Activation", "inbound_nodes": [[["batch_normalization_7", 0, 0, {}]]]}, {"name": "activation_10", "config": {"trainable": true, "activation": "relu", "name": "activation_10"}, "class_name": "Activation", "inbound_nodes": [[["batch_normalization_10", 0, 0, {}]]]}, {"name": "average_pooling2d_1", "config": {"name": "average_pooling2d_1", "pool_size": [3, 3], "data_format": "channels_last", "trainable": true, "strides": [1, 1], "padding": "same"}, "class_name": "AveragePooling2D", "inbound_nodes": [[["max_pooling2d_2", 0, 0, {}]]]}, {"name": "conv2d_6", "config": {"bias_initializer": {"config": {}, "class_name": "Zeros"}, "activity_regularizer": null, "activation": "linear", "kernel_size": [1, 1], "use_bias": false, "kernel_initializer": {"config": {"mode": "fan_avg", "seed": null, "scale": 1.0, "distribution": "uniform"}, "class_name": "VarianceScaling"}, "kernel_regularizer": null, "dilation_rate": [1, 1], "bias_constraint": null, "padding": "same", "name": "conv2d_6", "trainable": true, "kernel_constraint": null, "data_format": "channels_last", "bias_regularizer": null, "strides": [1, 1], "filters": 64}, "class_name": "Conv2D", "inbound_nodes": [[["max_pooling2d_2", 0, 0, {}]]]}, {"name": "conv2d_8", "config": {"bias_initializer": {"config": {}, "class_name": "Zeros"}, "activity_regularizer": null, "activation": "linear", "kernel_size": [5, 5], "use_bias": false, "kernel_initializer": {"config": {"mode": "fan_avg", "seed": null, "scale": 1.0, "distribution": "uniform"}, "class_name": "VarianceScaling"}, "kernel_regularizer": null, "dilation_rate": [1, 1], "bias_constraint": null, "padding": "same", "name": "conv2d_8", "trainable": true, "kernel_constraint": null, "data_format": "channels_last", "bias_regularizer": null, "strides": [1, 1], "filters": 64}, "class_name": "Conv2D", "inbound_nodes": [[["activation_7", 0, 0, {}]]]}, {"name": "conv2d_11", "config": {"bias_initializer": {"config": {}, "class_name": "Zeros"}, "activity_regularizer": null, "activation": "linear", "kernel_size": [3, 3], "use_bias": false, "kernel_initializer": {"config": {"mode": "fan_avg", "seed": null, "scale": 1.0, "distribution": "uniform"}, "class_name": "VarianceScaling"}, "kernel_regularizer": null, "dilation_rate": [1, 1], "bias_constraint": null, "padding": "same", "name": "conv2d_11", "trainable": true, "kernel_constraint": null, "data_format": "channels_last", "bias_regularizer": null, "strides": [1, 1], "filters": 96}, "class_name": "Conv2D", "inbound_nodes": [[["activation_10", 0, 0, {}]]]}, {"name": "conv2d_12", "config": {"bias_initializer": {"config": {}, "class_name": "Zeros"}, "activity_regularizer": null, "activation": "linear", "kernel_size": [1, 1], "use_bias": false, "kernel_initializer": {"config": {"mode": "fan_avg", "seed": null, "scale": 1.0, "distribution": "uniform"}, "class_name": "VarianceScaling"}, "kernel_regularizer": null, "dilation_rate": [1, 1], "bias_constraint": null, "padding": "same", "name": "conv2d_12", "trainable": true, "kernel_constraint": null, "data_format": "channels_last", "bias_regularizer": null, "strides": [1, 1], "filters": 32}, "class_name": "Conv2D", "inbound_nodes": [[["average_pooling2d_1", 0, 0, {}]]]}, {"name": "batch_normalization_6", "config": {"epsilon": 0.001, "name": "batch_normalization_6", "scale": false, "moving_mean_initializer": {"config": {}, "class_name": "Zeros"}, "gamma_regularizer": null, "gamma_initializer": {"config": {}, "class_name": "Ones"}, "beta_regularizer": null, "axis": 3, "moving_variance_initializer": {"config": {}, "class_name": "Ones"}, "gamma_constraint": null, "trainable": true, "beta_constraint": null, "center": true, "beta_initializer": {"config": {}, "class_name": "Zeros"}, "momentum": 0.99}, "class_name": "BatchNormalization", "inbound_nodes": [[["conv2d_6", 0, 0, {}]]]}, {"name": "batch_normalization_8", "config": {"epsilon": 0.001, "name": "batch_normalization_8", "scale": false, "moving_mean_initializer": {"config": {}, "class_name": "Zeros"}, "gamma_regularizer": null, "gamma_initializer": {"config": {}, "class_name": "Ones"}, "beta_regularizer": null, "axis": 3, "moving_variance_initializer": {"config": {}, "class_name": "Ones"}, "gamma_constraint": null, "trainable": true, "beta_constraint": null, "center": true, "beta_initializer": {"config": {}, "class_name": "Zeros"}, "momentum": 0.99}, "class_name": "BatchNormalization", "inbound_nodes": [[["conv2d_8", 0, 0, {}]]]}, {"name": "batch_normalization_11", "config": {"epsilon": 0.001, "name": "batch_normalization_11", "scale": false, "moving_mean_initializer": {"config": {}, "class_name": "Zeros"}, "gamma_regularizer": null, "gamma_initializer": {"config": {}, "class_name": "Ones"}, "beta_regularizer": null, "axis": 3, "moving_variance_initializer": {"config": {}, "class_name": "Ones"}, "gamma_constraint": null, "trainable": true, "beta_constraint": null, "center": true, "beta_initializer": {"config": {}, "class_name": "Zeros"}, "momentum": 0.99}, "class_name": "BatchNormalization", "inbound_nodes": [[["conv2d_11", 0, 0, {}]]]}, {"name": "batch_normalization_12", "config": {"epsilon": 0.001, "name": "batch_normalization_12", "scale": false, "moving_mean_initializer": {"config": {}, "class_name": "Zeros"}, "gamma_regularizer": null, "gamma_initializer": {"config": {}, "class_name": "Ones"}, "beta_regularizer": null, "axis": 3, "moving_variance_initializer": {"config": {}, "class_name": "Ones"}, "gamma_constraint": null, "trainable": true, "beta_constraint": null, "center": true, "beta_initializer": {"config": {}, "class_name": "Zeros"}, "momentum": 0.99}, "class_name": "BatchNormalization", "inbound_nodes": [[["conv2d_12", 0, 0, {}]]]}, {"name": "activation_6", "config": {"trainable": true, "activation": "relu", "name": "activation_6"}, "class_name": "Activation", "inbound_nodes": [[["batch_normalization_6", 0, 0, {}]]]}, {"name": "activation_8", "config": {"trainable": true, "activation": "relu", "name": "activation_8"}, "class_name": "Activation", "inbound_nodes": [[["batch_normalization_8", 0, 0, {}]]]}, {"name": "activation_11", "config": {"trainable": true, "activation": "relu", "name": "activation_11"}, "class_name": "Activation", "inbound_nodes": [[["batch_normalization_11", 0, 0, {}]]]}, {"name": "activation_12", "config": {"trainable": true, "activation": "relu", "name": "activation_12"}, "class_name": "Activation", "inbound_nodes": [[["batch_normalization_12", 0, 0, {}]]]}, {"name": "mixed0", "config": {"trainable": true, "name": "mixed0", "axis": 3}, "class_name": "Concatenate", "inbound_nodes": [[["activation_6", 0, 0, {}], ["activation_8", 0, 0, {}], ["activation_11", 0, 0, {}], ["activation_12", 0, 0, {}]]]}, {"name": "conv2d_16", "config": {"bias_initializer": {"config": {}, "class_name": "Zeros"}, "activity_regularizer": null, "activation": "linear", "kernel_size": [1, 1], "use_bias": false, "kernel_initializer": {"config": {"mode": "fan_avg", "seed": null, "scale": 1.0, "distribution": "uniform"}, "class_name": "VarianceScaling"}, "kernel_regularizer": null, "dilation_rate": [1, 1], "bias_constraint": null, "padding": "same", "name": "conv2d_16", "trainable": true, "kernel_constraint": null, "data_format": "channels_last", "bias_regularizer": null, "strides": [1, 1], "filters": 64}, "class_name": "Conv2D", "inbound_nodes": [[["mixed0", 0, 0, {}]]]}, {"name": "batch_normalization_16", "config": {"epsilon": 0.001, "name": "batch_normalization_16", "scale": false, "moving_mean_initializer": {"config": {}, "class_name": "Zeros"}, "gamma_regularizer": null, "gamma_initializer": {"config": {}, "class_name": "Ones"}, "beta_regularizer": null, "axis": 3, "moving_variance_initializer": {"config": {}, "class_name": "Ones"}, "gamma_constraint": null, "trainable": true, "beta_constraint": null, "center": true, "beta_initializer": {"config": {}, "class_name": "Zeros"}, "momentum": 0.99}, "class_name": "BatchNormalization", "inbound_nodes": [[["conv2d_16", 0, 0, {}]]]}, {"name": "activation_16", "config": {"trainable": true, "activation": "relu", "name": "activation_16"}, "class_name": "Activation", "inbound_nodes": [[["batch_normalization_16", 0, 0, {}]]]}, {"name": "conv2d_14", "config": {"bias_initializer": {"config": {}, "class_name": "Zeros"}, "activity_regularizer": null, "activation": "linear", "kernel_size": [1, 1], "use_bias": false, "kernel_initializer": {"config": {"mode": "fan_avg", "seed": null, "scale": 1.0, "distribution": "uniform"}, "class_name": "VarianceScaling"}, "kernel_regularizer": null, "dilation_rate": [1, 1], "bias_constraint": null, "padding": "same", "name": "conv2d_14", "trainable": true, "kernel_constraint": null, "data_format": "channels_last", "bias_regularizer": null, "strides": [1, 1], "filters": 48}, "class_name": "Conv2D", "inbound_nodes": [[["mixed0", 0, 0, {}]]]}, {"name": "conv2d_17", "config": {"bias_initializer": {"config": {}, "class_name": "Zeros"}, "activity_regularizer": null, "activation": "linear", "kernel_size": [3, 3], "use_bias": false, "kernel_initializer": {"config": {"mode": "fan_avg", "seed": null, "scale": 1.0, "distribution": "uniform"}, "class_name": "VarianceScaling"}, "kernel_regularizer": null, "dilation_rate": [1, 1], "bias_constraint": null, "padding": "same", "name": "conv2d_17", "trainable": true, "kernel_constraint": null, "data_format": "channels_last", "bias_regularizer": null, "strides": [1, 1], "filters": 96}, "class_name": "Conv2D", "inbound_nodes": [[["activation_16", 0, 0, {}]]]}, {"name": "batch_normalization_14", "config": {"epsilon": 0.001, "name": "batch_normalization_14", "scale": false, "moving_mean_initializer": {"config": {}, "class_name": "Zeros"}, "gamma_regularizer": null, "gamma_initializer": {"config": {}, "class_name": "Ones"}, "beta_regularizer": null, "axis": 3, "moving_variance_initializer": {"config": {}, "class_name": "Ones"}, "gamma_constraint": null, "trainable": true, "beta_constraint": null, "center": true, "beta_initializer": {"config": {}, "class_name": "Zeros"}, "momentum": 0.99}, "class_name": "BatchNormalization", "inbound_nodes": [[["conv2d_14", 0, 0, {}]]]}, {"name": "batch_normalization_17", "config": {"epsilon": 0.001, "name": "batch_normalization_17", "scale": false, "moving_mean_initializer": {"config": {}, "class_name": "Zeros"}, "gamma_regularizer": null, "gamma_initializer": {"config": {}, "class_name": "Ones"}, "beta_regularizer": null, "axis": 3, "moving_variance_initializer": {"config": {}, "class_name": "Ones"}, "gamma_constraint": null, "trainable": true, "beta_constraint": null, "center": true, "beta_initializer": {"config": {}, "class_name": "Zeros"}, "momentum": 0.99}, "class_name": "BatchNormalization", "inbound_nodes": [[["conv2d_17", 0, 0, {}]]]}, {"name": "activation_14", "config": {"trainable": true, "activation": "relu", "name": "activation_14"}, "class_name": "Activation", "inbound_nodes": [[["batch_normalization_14", 0, 0, {}]]]}, {"name": "activation_17", "config": {"trainable": true, "activation": "relu", "name": "activation_17"}, "class_name": "Activation", "inbound_nodes": [[["batch_normalization_17", 0, 0, {}]]]}, {"name": "average_pooling2d_2", "config": {"name": "average_pooling2d_2", "pool_size": [3, 3], "data_format": "channels_last", "trainable": true, "strides": [1, 1], "padding": "same"}, "class_name": "AveragePooling2D", "inbound_nodes": [[["mixed0", 0, 0, {}]]]}, {"name": "conv2d_13", "config": {"bias_initializer": {"config": {}, "class_name": "Zeros"}, "activity_regularizer": null, "activation": "linear", "kernel_size": [1, 1], "use_bias": false, "kernel_initializer": {"config": {"mode": "fan_avg", "seed": null, "scale": 1.0, "distribution": "uniform"}, "class_name": "VarianceScaling"}, "kernel_regularizer": null, "dilation_rate": [1, 1], "bias_constraint": null, "padding": "same", "name": "conv2d_13", "trainable": true, "kernel_constraint": null, "data_format": "channels_last", "bias_regularizer": null, "strides": [1, 1], "filters": 64}, "class_name": "Conv2D", "inbound_nodes": [[["mixed0", 0, 0, {}]]]}, {"name": "conv2d_15", "config": {"bias_initializer": {"config": {}, "class_name": "Zeros"}, "activity_regularizer": null, "activation": "linear", "kernel_size": [5, 5], "use_bias": false, "kernel_initializer": {"config": {"mode": "fan_avg", "seed": null, "scale": 1.0, "distribution": "uniform"}, "class_name": "VarianceScaling"}, "kernel_regularizer": null, "dilation_rate": [1, 1], "bias_constraint": null, "padding": "same", "name": "conv2d_15", "trainable": true, "kernel_constraint": null, "data_format": "channels_last", "bias_regularizer": null, "strides": [1, 1], "filters": 64}, "class_name": "Conv2D", "inbound_nodes": [[["activation_14", 0, 0, {}]]]}, {"name": "conv2d_18", "config": {"bias_initializer": {"config": {}, "class_name": "Zeros"}, "activity_regularizer": null, "activation": "linear", "kernel_size": [3, 3], "use_bias": false, "kernel_initializer": {"config": {"mode": "fan_avg", "seed": null, "scale": 1.0, "distribution": "uniform"}, "class_name": "VarianceScaling"}, "kernel_regularizer": null, "dilation_rate": [1, 1], "bias_constraint": null, "padding": "same", "name": "conv2d_18", "trainable": true, "kernel_constraint": null, "data_format": "channels_last", "bias_regularizer": null, "strides": [1, 1], "filters": 96}, "class_name": "Conv2D", "inbound_nodes": [[["activation_17", 0, 0, {}]]]}, {"name": "conv2d_19", "config": {"bias_initializer": {"config": {}, "class_name": "Zeros"}, "activity_regularizer": null, "activation": "linear", "kernel_size": [1, 1], "use_bias": false, "kernel_initializer": {"config": {"mode": "fan_avg", "seed": null, "scale": 1.0, "distribution": "uniform"}, "class_name": "VarianceScaling"}, "kernel_regularizer": null, "dilation_rate": [1, 1], "bias_constraint": null, "padding": "same", "name": "conv2d_19", "trainable": true, "kernel_constraint": null, "data_format": "channels_last", "bias_regularizer": null, "strides": [1, 1], "filters": 64}, "class_name": "Conv2D", "inbound_nodes": [[["average_pooling2d_2", 0, 0, {}]]]}, {"name": "batch_normalization_13", "config": {"epsilon": 0.001, "name": "batch_normalization_13", "scale": false, "moving_mean_initializer": {"config": {}, "class_name": "Zeros"}, "gamma_regularizer": null, "gamma_initializer": {"config": {}, "class_name": "Ones"}, "beta_regularizer": null, "axis": 3, "moving_variance_initializer": {"config": {}, "class_name": "Ones"}, "gamma_constraint": null, "trainable": true, "beta_constraint": null, "center": true, "beta_initializer": {"config": {}, "class_name": "Zeros"}, "momentum": 0.99}, "class_name": "BatchNormalization", "inbound_nodes": [[["conv2d_13", 0, 0, {}]]]}, {"name": "batch_normalization_15", "config": {"epsilon": 0.001, "name": "batch_normalization_15", "scale": false, "moving_mean_initializer": {"config": {}, "class_name": "Zeros"}, "gamma_regularizer": null, "gamma_initializer": {"config": {}, "class_name": "Ones"}, "beta_regularizer": null, "axis": 3, "moving_variance_initializer": {"config": {}, "class_name": "Ones"}, "gamma_constraint": null, "trainable": true, "beta_constraint": null, "center": true, "beta_initializer": {"config": {}, "class_name": "Zeros"}, "momentum": 0.99}, "class_name": "BatchNormalization", "inbound_nodes": [[["conv2d_15", 0, 0, {}]]]}, {"name": "batch_normalization_18", "config": {"epsilon": 0.001, "name": "batch_normalization_18", "scale": false, "moving_mean_initializer": {"config": {}, "class_name": "Zeros"}, "gamma_regularizer": null, "gamma_initializer": {"config": {}, "class_name": "Ones"}, "beta_regularizer": null, "axis": 3, "moving_variance_initializer": {"config": {}, "class_name": "Ones"}, "gamma_constraint": null, "trainable": true, "beta_constraint": null, "center": true, "beta_initializer": {"config": {}, "class_name": "Zeros"}, "momentum": 0.99}, "class_name": "BatchNormalization", "inbound_nodes": [[["conv2d_18", 0, 0, {}]]]}, {"name": "batch_normalization_19", "config": {"epsilon": 0.001, "name": "batch_normalization_19", "scale": false, "moving_mean_initializer": {"config": {}, "class_name": "Zeros"}, "gamma_regularizer": null, "gamma_initializer": {"config": {}, "class_name": "Ones"}, "beta_regularizer": null, "axis": 3, "moving_variance_initializer": {"config": {}, "class_name": "Ones"}, "gamma_constraint": null, "trainable": true, "beta_constraint": null, "center": true, "beta_initializer": {"config": {}, "class_name": "Zeros"}, "momentum": 0.99}, "class_name": "BatchNormalization", "inbound_nodes": [[["conv2d_19", 0, 0, {}]]]}, {"name": "activation_13", "config": {"trainable": true, "activation": "relu", "name": "activation_13"}, "class_name": "Activation", "inbound_nodes": [[["batch_normalization_13", 0, 0, {}]]]}, {"name": "activation_15", "config": {"trainable": true, "activation": "relu", "name": "activation_15"}, "class_name": "Activation", "inbound_nodes": [[["batch_normalization_15", 0, 0, {}]]]}, {"name": "activation_18", "config": {"trainable": true, "activation": "relu", "name": "activation_18"}, "class_name": "Activation", "inbound_nodes": [[["batch_normalization_18", 0, 0, {}]]]}, {"name": "activation_19", "config": {"trainable": true, "activation": "relu", "name": "activation_19"}, "class_name": "Activation", "inbound_nodes": [[["batch_normalization_19", 0, 0, {}]]]}, {"name": "mixed1", "config": {"trainable": true, "name": "mixed1", "axis": 3}, "class_name": "Concatenate", "inbound_nodes": [[["activation_13", 0, 0, {}], ["activation_15", 0, 0, {}], ["activation_18", 0, 0, {}], ["activation_19", 0, 0, {}]]]}, {"name": "conv2d_23", "config": {"bias_initializer": {"config": {}, "class_name": "Zeros"}, "activity_regularizer": null, "activation": "linear", "kernel_size": [1, 1], "use_bias": false, "kernel_initializer": {"config": {"mode": "fan_avg", "seed": null, "scale": 1.0, "distribution": "uniform"}, "class_name": "VarianceScaling"}, "kernel_regularizer": null, "dilation_rate": [1, 1], "bias_constraint": null, "padding": "same", "name": "conv2d_23", "trainable": true, "kernel_constraint": null, "data_format": "channels_last", "bias_regularizer": null, "strides": [1, 1], "filters": 64}, "class_name": "Conv2D", "inbound_nodes": [[["mixed1", 0, 0, {}]]]}, {"name": "batch_normalization_23", "config": {"epsilon": 0.001, "name": "batch_normalization_23", "scale": false, "moving_mean_initializer": {"config": {}, "class_name": "Zeros"}, "gamma_regularizer": null, "gamma_initializer": {"config": {}, "class_name": "Ones"}, "beta_regularizer": null, "axis": 3, "moving_variance_initializer": {"config": {}, "class_name": "Ones"}, "gamma_constraint": null, "trainable": true, "beta_constraint": null, "center": true, "beta_initializer": {"config": {}, "class_name": "Zeros"}, "momentum": 0.99}, "class_name": "BatchNormalization", "inbound_nodes": [[["conv2d_23", 0, 0, {}]]]}, {"name": "activation_23", "config": {"trainable": true, "activation": "relu", "name": "activation_23"}, "class_name": "Activation", "inbound_nodes": [[["batch_normalization_23", 0, 0, {}]]]}, {"name": "conv2d_21", "config": {"bias_initializer": {"config": {}, "class_name": "Zeros"}, "activity_regularizer": null, "activation": "linear", "kernel_size": [1, 1], "use_bias": false, "kernel_initializer": {"config": {"mode": "fan_avg", "seed": null, "scale": 1.0, "distribution": "uniform"}, "class_name": "VarianceScaling"}, "kernel_regularizer": null, "dilation_rate": [1, 1], "bias_constraint": null, "padding": "same", "name": "conv2d_21", "trainable": true, "kernel_constraint": null, "data_format": "channels_last", "bias_regularizer": null, "strides": [1, 1], "filters": 48}, "class_name": "Conv2D", "inbound_nodes": [[["mixed1", 0, 0, {}]]]}, {"name": "conv2d_24", "config": {"bias_initializer": {"config": {}, "class_name": "Zeros"}, "activity_regularizer": null, "activation": "linear", "kernel_size": [3, 3], "use_bias": false, "kernel_initializer": {"config": {"mode": "fan_avg", "seed": null, "scale": 1.0, "distribution": "uniform"}, "class_name": "VarianceScaling"}, "kernel_regularizer": null, "dilation_rate": [1, 1], "bias_constraint": null, "padding": "same", "name": "conv2d_24", "trainable": true, "kernel_constraint": null, "data_format": "channels_last", "bias_regularizer": null, "strides": [1, 1], "filters": 96}, "class_name": "Conv2D", "inbound_nodes": [[["activation_23", 0, 0, {}]]]}, {"name": "batch_normalization_21", "config": {"epsilon": 0.001, "name": "batch_normalization_21", "scale": false, "moving_mean_initializer": {"config": {}, "class_name": "Zeros"}, "gamma_regularizer": null, "gamma_initializer": {"config": {}, "class_name": "Ones"}, "beta_regularizer": null, "axis": 3, "moving_variance_initializer": {"config": {}, "class_name": "Ones"}, "gamma_constraint": null, "trainable": true, "beta_constraint": null, "center": true, "beta_initializer": {"config": {}, "class_name": "Zeros"}, "momentum": 0.99}, "class_name": "BatchNormalization", "inbound_nodes": [[["conv2d_21", 0, 0, {}]]]}, {"name": "batch_normalization_24", "config": {"epsilon": 0.001, "name": "batch_normalization_24", "scale": false, "moving_mean_initializer": {"config": {}, "class_name": "Zeros"}, "gamma_regularizer": null, "gamma_initializer": {"config": {}, "class_name": "Ones"}, "beta_regularizer": null, "axis": 3, "moving_variance_initializer": {"config": {}, "class_name": "Ones"}, "gamma_constraint": null, "trainable": true, "beta_constraint": null, "center": true, "beta_initializer": {"config": {}, "class_name": "Zeros"}, "momentum": 0.99}, "class_name": "BatchNormalization", "inbound_nodes": [[["conv2d_24", 0, 0, {}]]]}, {"name": "activation_21", "config": {"trainable": true, "activation": "relu", "name": "activation_21"}, "class_name": "Activation", "inbound_nodes": [[["batch_normalization_21", 0, 0, {}]]]}, {"name": "activation_24", "config": {"trainable": true, "activation": "relu", "name": "activation_24"}, "class_name": "Activation", "inbound_nodes": [[["batch_normalization_24", 0, 0, {}]]]}, {"name": "average_pooling2d_3", "config": {"name": "average_pooling2d_3", "pool_size": [3, 3], "data_format": "channels_last", "trainable": true, "strides": [1, 1], "padding": "same"}, "class_name": "AveragePooling2D", "inbound_nodes": [[["mixed1", 0, 0, {}]]]}, {"name": "conv2d_20", "config": {"bias_initializer": {"config": {}, "class_name": "Zeros"}, "activity_regularizer": null, "activation": "linear", "kernel_size": [1, 1], "use_bias": false, "kernel_initializer": {"config": {"mode": "fan_avg", "seed": null, "scale": 1.0, "distribution": "uniform"}, "class_name": "VarianceScaling"}, "kernel_regularizer": null, "dilation_rate": [1, 1], "bias_constraint": null, "padding": "same", "name": "conv2d_20", "trainable": true, "kernel_constraint": null, "data_format": "channels_last", "bias_regularizer": null, "strides": [1, 1], "filters": 64}, "class_name": "Conv2D", "inbound_nodes": [[["mixed1", 0, 0, {}]]]}, {"name": "conv2d_22", "config": {"bias_initializer": {"config": {}, "class_name": "Zeros"}, "activity_regularizer": null, "activation": "linear", "kernel_size": [5, 5], "use_bias": false, "kernel_initializer": {"config": {"mode": "fan_avg", "seed": null, "scale": 1.0, "distribution": "uniform"}, "class_name": "VarianceScaling"}, "kernel_regularizer": null, "dilation_rate": [1, 1], "bias_constraint": null, "padding": "same", "name": "conv2d_22", "trainable": true, "kernel_constraint": null, "data_format": "channels_last", "bias_regularizer": null, "strides": [1, 1], "filters": 64}, "class_name": "Conv2D", "inbound_nodes": [[["activation_21", 0, 0, {}]]]}, {"name": "conv2d_25", "config": {"bias_initializer": {"config": {}, "class_name": "Zeros"}, "activity_regularizer": null, "activation": "linear", "kernel_size": [3, 3], "use_bias": false, "kernel_initializer": {"config": {"mode": "fan_avg", "seed": null, "scale": 1.0, "distribution": "uniform"}, "class_name": "VarianceScaling"}, "kernel_regularizer": null, "dilation_rate": [1, 1], "bias_constraint": null, "padding": "same", "name": "conv2d_25", "trainable": true, "kernel_constraint": null, "data_format": "channels_last", "bias_regularizer": null, "strides": [1, 1], "filters": 96}, "class_name": "Conv2D", "inbound_nodes": [[["activation_24", 0, 0, {}]]]}, {"name": "conv2d_26", "config": {"bias_initializer": {"config": {}, "class_name": "Zeros"}, "activity_regularizer": null, "activation": "linear", "kernel_size": [1, 1], "use_bias": false, "kernel_initializer": {"config": {"mode": "fan_avg", "seed": null, "scale": 1.0, "distribution": "uniform"}, "class_name": "VarianceScaling"}, "kernel_regularizer": null, "dilation_rate": [1, 1], "bias_constraint": null, "padding": "same", "name": "conv2d_26", "trainable": true, "kernel_constraint": null, "data_format": "channels_last", "bias_regularizer": null, "strides": [1, 1], "filters": 64}, "class_name": "Conv2D", "inbound_nodes": [[["average_pooling2d_3", 0, 0, {}]]]}, {"name": "batch_normalization_20", "config": {"epsilon": 0.001, "name": "batch_normalization_20", "scale": false, "moving_mean_initializer": {"config": {}, "class_name": "Zeros"}, "gamma_regularizer": null, "gamma_initializer": {"config": {}, "class_name": "Ones"}, "beta_regularizer": null, "axis": 3, "moving_variance_initializer": {"config": {}, "class_name": "Ones"}, "gamma_constraint": null, "trainable": true, "beta_constraint": null, "center": true, "beta_initializer": {"config": {}, "class_name": "Zeros"}, "momentum": 0.99}, "class_name": "BatchNormalization", "inbound_nodes": [[["conv2d_20", 0, 0, {}]]]}, {"name": "batch_normalization_22", "config": {"epsilon": 0.001, "name": "batch_normalization_22", "scale": false, "moving_mean_initializer": {"config": {}, "class_name": "Zeros"}, "gamma_regularizer": null, "gamma_initializer": {"config": {}, "class_name": "Ones"}, "beta_regularizer": null, "axis": 3, "moving_variance_initializer": {"config": {}, "class_name": "Ones"}, "gamma_constraint": null, "trainable": true, "beta_constraint": null, "center": true, "beta_initializer": {"config": {}, "class_name": "Zeros"}, "momentum": 0.99}, "class_name": "BatchNormalization", "inbound_nodes": [[["conv2d_22", 0, 0, {}]]]}, {"name": "batch_normalization_25", "config": {"epsilon": 0.001, "name": "batch_normalization_25", "scale": false, "moving_mean_initializer": {"config": {}, "class_name": "Zeros"}, "gamma_regularizer": null, "gamma_initializer": {"config": {}, "class_name": "Ones"}, "beta_regularizer": null, "axis": 3, "moving_variance_initializer": {"config": {}, "class_name": "Ones"}, "gamma_constraint": null, "trainable": true, "beta_constraint": null, "center": true, "beta_initializer": {"config": {}, "class_name": "Zeros"}, "momentum": 0.99}, "class_name": "BatchNormalization", "inbound_nodes": [[["conv2d_25", 0, 0, {}]]]}, {"name": "batch_normalization_26", "config": {"epsilon": 0.001, "name": "batch_normalization_26", "scale": false, "moving_mean_initializer": {"config": {}, "class_name": "Zeros"}, "gamma_regularizer": null, "gamma_initializer": {"config": {}, "class_name": "Ones"}, "beta_regularizer": null, "axis": 3, "moving_variance_initializer": {"config": {}, "class_name": "Ones"}, "gamma_constraint": null, "trainable": true, "beta_constraint": null, "center": true, "beta_initializer": {"config": {}, "class_name": "Zeros"}, "momentum": 0.99}, "class_name": "BatchNormalization", "inbound_nodes": [[["conv2d_26", 0, 0, {}]]]}, {"name": "activation_20", "config": {"trainable": true, "activation": "relu", "name": "activation_20"}, "class_name": "Activation", "inbound_nodes": [[["batch_normalization_20", 0, 0, {}]]]}, {"name": "activation_22", "config": {"trainable": true, "activation": "relu", "name": "activation_22"}, "class_name": "Activation", "inbound_nodes": [[["batch_normalization_22", 0, 0, {}]]]}, {"name": "activation_25", "config": {"trainable": true, "activation": "relu", "name": "activation_25"}, "class_name": "Activation", "inbound_nodes": [[["batch_normalization_25", 0, 0, {}]]]}, {"name": "activation_26", "config": {"trainable": true, "activation": "relu", "name": "activation_26"}, "class_name": "Activation", "inbound_nodes": [[["batch_normalization_26", 0, 0, {}]]]}, {"name": "mixed2", "config": {"trainable": true, "name": "mixed2", "axis": 3}, "class_name": "Concatenate", "inbound_nodes": [[["activation_20", 0, 0, {}], ["activation_22", 0, 0, {}], ["activation_25", 0, 0, {}], ["activation_26", 0, 0, {}]]]}, {"name": "conv2d_28", "config": {"bias_initializer": {"config": {}, "class_name": "Zeros"}, "activity_regularizer": null, "activation": "linear", "kernel_size": [1, 1], "use_bias": false, "kernel_initializer": {"config": {"mode": "fan_avg", "seed": null, "scale": 1.0, "distribution": "uniform"}, "class_name": "VarianceScaling"}, "kernel_regularizer": null, "dilation_rate": [1, 1], "bias_constraint": null, "padding": "same", "name": "conv2d_28", "trainable": true, "kernel_constraint": null, "data_format": "channels_last", "bias_regularizer": null, "strides": [1, 1], "filters": 64}, "class_name": "Conv2D", "inbound_nodes": [[["mixed2", 0, 0, {}]]]}, {"name": "batch_normalization_28", "config": {"epsilon": 0.001, "name": "batch_normalization_28", "scale": false, "moving_mean_initializer": {"config": {}, "class_name": "Zeros"}, "gamma_regularizer": null, "gamma_initializer": {"config": {}, "class_name": "Ones"}, "beta_regularizer": null, "axis": 3, "moving_variance_initializer": {"config": {}, "class_name": "Ones"}, "gamma_constraint": null, "trainable": true, "beta_constraint": null, "center": true, "beta_initializer": {"config": {}, "class_name": "Zeros"}, "momentum": 0.99}, "class_name": "BatchNormalization", "inbound_nodes": [[["conv2d_28", 0, 0, {}]]]}, {"name": "activation_28", "config": {"trainable": true, "activation": "relu", "name": "activation_28"}, "class_name": "Activation", "inbound_nodes": [[["batch_normalization_28", 0, 0, {}]]]}, {"name": "conv2d_29", "config": {"bias_initializer": {"config": {}, "class_name": "Zeros"}, "activity_regularizer": null, "activation": "linear", "kernel_size": [3, 3], "use_bias": false, "kernel_initializer": {"config": {"mode": "fan_avg", "seed": null, "scale": 1.0, "distribution": "uniform"}, "class_name": "VarianceScaling"}, "kernel_regularizer": null, "dilation_rate": [1, 1], "bias_constraint": null, "padding": "same", "name": "conv2d_29", "trainable": true, "kernel_constraint": null, "data_format": "channels_last", "bias_regularizer": null, "strides": [1, 1], "filters": 96}, "class_name": "Conv2D", "inbound_nodes": [[["activation_28", 0, 0, {}]]]}, {"name": "batch_normalization_29", "config": {"epsilon": 0.001, "name": "batch_normalization_29", "scale": false, "moving_mean_initializer": {"config": {}, "class_name": "Zeros"}, "gamma_regularizer": null, "gamma_initializer": {"config": {}, "class_name": "Ones"}, "beta_regularizer": null, "axis": 3, "moving_variance_initializer": {"config": {}, "class_name": "Ones"}, "gamma_constraint": null, "trainable": true, "beta_constraint": null, "center": true, "beta_initializer": {"config": {}, "class_name": "Zeros"}, "momentum": 0.99}, "class_name": "BatchNormalization", "inbound_nodes": [[["conv2d_29", 0, 0, {}]]]}, {"name": "activation_29", "config": {"trainable": true, "activation": "relu", "name": "activation_29"}, "class_name": "Activation", "inbound_nodes": [[["batch_normalization_29", 0, 0, {}]]]}, {"name": "conv2d_27", "config": {"bias_initializer": {"config": {}, "class_name": "Zeros"}, "activity_regularizer": null, "activation": "linear", "kernel_size": [3, 3], "use_bias": false, "kernel_initializer": {"config": {"mode": "fan_avg", "seed": null, "scale": 1.0, "distribution": "uniform"}, "class_name": "VarianceScaling"}, "kernel_regularizer": null, "dilation_rate": [1, 1], "bias_constraint": null, "padding": "valid", "name": "conv2d_27", "trainable": true, "kernel_constraint": null, "data_format": "channels_last", "bias_regularizer": null, "strides": [2, 2], "filters": 384}, "class_name": "Conv2D", "inbound_nodes": [[["mixed2", 0, 0, {}]]]}, {"name": "conv2d_30", "config": {"bias_initializer": {"config": {}, "class_name": "Zeros"}, "activity_regularizer": null, "activation": "linear", "kernel_size": [3, 3], "use_bias": false, "kernel_initializer": {"config": {"mode": "fan_avg", "seed": null, "scale": 1.0, "distribution": "uniform"}, "class_name": "VarianceScaling"}, "kernel_regularizer": null, "dilation_rate": [1, 1], "bias_constraint": null, "padding": "valid", "name": "conv2d_30", "trainable": true, "kernel_constraint": null, "data_format": "channels_last", "bias_regularizer": null, "strides": [2, 2], "filters": 96}, "class_name": "Conv2D", "inbound_nodes": [[["activation_29", 0, 0, {}]]]}, {"name": "batch_normalization_27", "config": {"epsilon": 0.001, "name": "batch_normalization_27", "scale": false, "moving_mean_initializer": {"config": {}, "class_name": "Zeros"}, "gamma_regularizer": null, "gamma_initializer": {"config": {}, "class_name": "Ones"}, "beta_regularizer": null, "axis": 3, "moving_variance_initializer": {"config": {}, "class_name": "Ones"}, "gamma_constraint": null, "trainable": true, "beta_constraint": null, "center": true, "beta_initializer": {"config": {}, "class_name": "Zeros"}, "momentum": 0.99}, "class_name": "BatchNormalization", "inbound_nodes": [[["conv2d_27", 0, 0, {}]]]}, {"name": "batch_normalization_30", "config": {"epsilon": 0.001, "name": "batch_normalization_30", "scale": false, "moving_mean_initializer": {"config": {}, "class_name": "Zeros"}, "gamma_regularizer": null, "gamma_initializer": {"config": {}, "class_name": "Ones"}, "beta_regularizer": null, "axis": 3, "moving_variance_initializer": {"config": {}, "class_name": "Ones"}, "gamma_constraint": null, "trainable": true, "beta_constraint": null, "center": true, "beta_initializer": {"config": {}, "class_name": "Zeros"}, "momentum": 0.99}, "class_name": "BatchNormalization", "inbound_nodes": [[["conv2d_30", 0, 0, {}]]]}, {"name": "activation_27", "config": {"trainable": true, "activation": "relu", "name": "activation_27"}, "class_name": "Activation", "inbound_nodes": [[["batch_normalization_27", 0, 0, {}]]]}, {"name": "activation_30", "config": {"trainable": true, "activation": "relu", "name": "activation_30"}, "class_name": "Activation", "inbound_nodes": [[["batch_normalization_30", 0, 0, {}]]]}, {"name": "max_pooling2d_3", "config": {"name": "max_pooling2d_3", "pool_size": [3, 3], "data_format": "channels_last", "trainable": true, "strides": [2, 2], "padding": "valid"}, "class_name": "MaxPooling2D", "inbound_nodes": [[["mixed2", 0, 0, {}]]]}, {"name": "mixed3", "config": {"trainable": true, "name": "mixed3", "axis": 3}, "class_name": "Concatenate", "inbound_nodes": [[["activation_27", 0, 0, {}], ["activation_30", 0, 0, {}], ["max_pooling2d_3", 0, 0, {}]]]}, {"name": "conv2d_35", "config": {"bias_initializer": {"config": {}, "class_name": "Zeros"}, "activity_regularizer": null, "activation": "linear", "kernel_size": [1, 1], "use_bias": false, "kernel_initializer": {"config": {"mode": "fan_avg", "seed": null, "scale": 1.0, "distribution": "uniform"}, "class_name": "VarianceScaling"}, "kernel_regularizer": null, "dilation_rate": [1, 1], "bias_constraint": null, "padding": "same", "name": "conv2d_35", "trainable": true, "kernel_constraint": null, "data_format": "channels_last", "bias_regularizer": null, "strides": [1, 1], "filters": 128}, "class_name": "Conv2D", "inbound_nodes": [[["mixed3", 0, 0, {}]]]}, {"name": "batch_normalization_35", "config": {"epsilon": 0.001, "name": "batch_normalization_35", "scale": false, "moving_mean_initializer": {"config": {}, "class_name": "Zeros"}, "gamma_regularizer": null, "gamma_initializer": {"config": {}, "class_name": "Ones"}, "beta_regularizer": null, "axis": 3, "moving_variance_initializer": {"config": {}, "class_name": "Ones"}, "gamma_constraint": null, "trainable": true, "beta_constraint": null, "center": true, "beta_initializer": {"config": {}, "class_name": "Zeros"}, "momentum": 0.99}, "class_name": "BatchNormalization", "inbound_nodes": [[["conv2d_35", 0, 0, {}]]]}, {"name": "activation_35", "config": {"trainable": true, "activation": "relu", "name": "activation_35"}, "class_name": "Activation", "inbound_nodes": [[["batch_normalization_35", 0, 0, {}]]]}, {"name": "conv2d_36", "config": {"bias_initializer": {"config": {}, "class_name": "Zeros"}, "activity_regularizer": null, "activation": "linear", "kernel_size": [7, 1], "use_bias": false, "kernel_initializer": {"config": {"mode": "fan_avg", "seed": null, "scale": 1.0, "distribution": "uniform"}, "class_name": "VarianceScaling"}, "kernel_regularizer": null, "dilation_rate": [1, 1], "bias_constraint": null, "padding": "same", "name": "conv2d_36", "trainable": true, "kernel_constraint": null, "data_format": "channels_last", "bias_regularizer": null, "strides": [1, 1], "filters": 128}, "class_name": "Conv2D", "inbound_nodes": [[["activation_35", 0, 0, {}]]]}, {"name": "batch_normalization_36", "config": {"epsilon": 0.001, "name": "batch_normalization_36", "scale": false, "moving_mean_initializer": {"config": {}, "class_name": "Zeros"}, "gamma_regularizer": null, "gamma_initializer": {"config": {}, "class_name": "Ones"}, "beta_regularizer": null, "axis": 3, "moving_variance_initializer": {"config": {}, "class_name": "Ones"}, "gamma_constraint": null, "trainable": true, "beta_constraint": null, "center": true, "beta_initializer": {"config": {}, "class_name": "Zeros"}, "momentum": 0.99}, "class_name": "BatchNormalization", "inbound_nodes": [[["conv2d_36", 0, 0, {}]]]}, {"name": "activation_36", "config": {"trainable": true, "activation": "relu", "name": "activation_36"}, "class_name": "Activation", "inbound_nodes": [[["batch_normalization_36", 0, 0, {}]]]}, {"name": "conv2d_32", "config": {"bias_initializer": {"config": {}, "class_name": "Zeros"}, "activity_regularizer": null, "activation": "linear", "kernel_size": [1, 1], "use_bias": false, "kernel_initializer": {"config": {"mode": "fan_avg", "seed": null, "scale": 1.0, "distribution": "uniform"}, "class_name": "VarianceScaling"}, "kernel_regularizer": null, "dilation_rate": [1, 1], "bias_constraint": null, "padding": "same", "name": "conv2d_32", "trainable": true, "kernel_constraint": null, "data_format": "channels_last", "bias_regularizer": null, "strides": [1, 1], "filters": 128}, "class_name": "Conv2D", "inbound_nodes": [[["mixed3", 0, 0, {}]]]}, {"name": "conv2d_37", "config": {"bias_initializer": {"config": {}, "class_name": "Zeros"}, "activity_regularizer": null, "activation": "linear", "kernel_size": [1, 7], "use_bias": false, "kernel_initializer": {"config": {"mode": "fan_avg", "seed": null, "scale": 1.0, "distribution": "uniform"}, "class_name": "VarianceScaling"}, "kernel_regularizer": null, "dilation_rate": [1, 1], "bias_constraint": null, "padding": "same", "name": "conv2d_37", "trainable": true, "kernel_constraint": null, "data_format": "channels_last", "bias_regularizer": null, "strides": [1, 1], "filters": 128}, "class_name": "Conv2D", "inbound_nodes": [[["activation_36", 0, 0, {}]]]}, {"name": "batch_normalization_32", "config": {"epsilon": 0.001, "name": "batch_normalization_32", "scale": false, "moving_mean_initializer": {"config": {}, "class_name": "Zeros"}, "gamma_regularizer": null, "gamma_initializer": {"config": {}, "class_name": "Ones"}, "beta_regularizer": null, "axis": 3, "moving_variance_initializer": {"config": {}, "class_name": "Ones"}, "gamma_constraint": null, "trainable": true, "beta_constraint": null, "center": true, "beta_initializer": {"config": {}, "class_name": "Zeros"}, "momentum": 0.99}, "class_name": "BatchNormalization", "inbound_nodes": [[["conv2d_32", 0, 0, {}]]]}, {"name": "batch_normalization_37", "config": {"epsilon": 0.001, "name": "batch_normalization_37", "scale": false, "moving_mean_initializer": {"config": {}, "class_name": "Zeros"}, "gamma_regularizer": null, "gamma_initializer": {"config": {}, "class_name": "Ones"}, "beta_regularizer": null, "axis": 3, "moving_variance_initializer": {"config": {}, "class_name": "Ones"}, "gamma_constraint": null, "trainable": true, "beta_constraint": null, "center": true, "beta_initializer": {"config": {}, "class_name": "Zeros"}, "momentum": 0.99}, "class_name": "BatchNormalization", "inbound_nodes": [[["conv2d_37", 0, 0, {}]]]}, {"name": "activation_32", "config": {"trainable": true, "activation": "relu", "name": "activation_32"}, "class_name": "Activation", "inbound_nodes": [[["batch_normalization_32", 0, 0, {}]]]}, {"name": "activation_37", "config": {"trainable": true, "activation": "relu", "name": "activation_37"}, "class_name": "Activation", "inbound_nodes": [[["batch_normalization_37", 0, 0, {}]]]}, {"name": "conv2d_33", "config": {"bias_initializer": {"config": {}, "class_name": "Zeros"}, "activity_regularizer": null, "activation": "linear", "kernel_size": [1, 7], "use_bias": false, "kernel_initializer": {"config": {"mode": "fan_avg", "seed": null, "scale": 1.0, "distribution": "uniform"}, "class_name": "VarianceScaling"}, "kernel_regularizer": null, "dilation_rate": [1, 1], "bias_constraint": null, "padding": "same", "name": "conv2d_33", "trainable": true, "kernel_constraint": null, "data_format": "channels_last", "bias_regularizer": null, "strides": [1, 1], "filters": 128}, "class_name": "Conv2D", "inbound_nodes": [[["activation_32", 0, 0, {}]]]}, {"name": "conv2d_38", "config": {"bias_initializer": {"config": {}, "class_name": "Zeros"}, "activity_regularizer": null, "activation": "linear", "kernel_size": [7, 1], "use_bias": false, "kernel_initializer": {"config": {"mode": "fan_avg", "seed": null, "scale": 1.0, "distribution": "uniform"}, "class_name": "VarianceScaling"}, "kernel_regularizer": null, "dilation_rate": [1, 1], "bias_constraint": null, "padding": "same", "name": "conv2d_38", "trainable": true, "kernel_constraint": null, "data_format": "channels_last", "bias_regularizer": null, "strides": [1, 1], "filters": 128}, "class_name": "Conv2D", "inbound_nodes": [[["activation_37", 0, 0, {}]]]}, {"name": "batch_normalization_33", "config": {"epsilon": 0.001, "name": "batch_normalization_33", "scale": false, "moving_mean_initializer": {"config": {}, "class_name": "Zeros"}, "gamma_regularizer": null, "gamma_initializer": {"config": {}, "class_name": "Ones"}, "beta_regularizer": null, "axis": 3, "moving_variance_initializer": {"config": {}, "class_name": "Ones"}, "gamma_constraint": null, "trainable": true, "beta_constraint": null, "center": true, "beta_initializer": {"config": {}, "class_name": "Zeros"}, "momentum": 0.99}, "class_name": "BatchNormalization", "inbound_nodes": [[["conv2d_33", 0, 0, {}]]]}, {"name": "batch_normalization_38", "config": {"epsilon": 0.001, "name": "batch_normalization_38", "scale": false, "moving_mean_initializer": {"config": {}, "class_name": "Zeros"}, "gamma_regularizer": null, "gamma_initializer": {"config": {}, "class_name": "Ones"}, "beta_regularizer": null, "axis": 3, "moving_variance_initializer": {"config": {}, "class_name": "Ones"}, "gamma_constraint": null, "trainable": true, "beta_constraint": null, "center": true, "beta_initializer": {"config": {}, "class_name": "Zeros"}, "momentum": 0.99}, "class_name": "BatchNormalization", "inbound_nodes": [[["conv2d_38", 0, 0, {}]]]}, {"name": "activation_33", "config": {"trainable": true, "activation": "relu", "name": "activation_33"}, "class_name": "Activation", "inbound_nodes": [[["batch_normalization_33", 0, 0, {}]]]}, {"name": "activation_38", "config": {"trainable": true, "activation": "relu", "name": "activation_38"}, "class_name": "Activation", "inbound_nodes": [[["batch_normalization_38", 0, 0, {}]]]}, {"name": "average_pooling2d_4", "config": {"name": "average_pooling2d_4", "pool_size": [3, 3], "data_format": "channels_last", "trainable": true, "strides": [1, 1], "padding": "same"}, "class_name": "AveragePooling2D", "inbound_nodes": [[["mixed3", 0, 0, {}]]]}, {"name": "conv2d_31", "config": {"bias_initializer": {"config": {}, "class_name": "Zeros"}, "activity_regularizer": null, "activation": "linear", "kernel_size": [1, 1], "use_bias": false, "kernel_initializer": {"config": {"mode": "fan_avg", "seed": null, "scale": 1.0, "distribution": "uniform"}, "class_name": "VarianceScaling"}, "kernel_regularizer": null, "dilation_rate": [1, 1], "bias_constraint": null, "padding": "same", "name": "conv2d_31", "trainable": true, "kernel_constraint": null, "data_format": "channels_last", "bias_regularizer": null, "strides": [1, 1], "filters": 192}, "class_name": "Conv2D", "inbound_nodes": [[["mixed3", 0, 0, {}]]]}, {"name": "conv2d_34", "config": {"bias_initializer": {"config": {}, "class_name": "Zeros"}, "activity_regularizer": null, "activation": "linear", "kernel_size": [7, 1], "use_bias": false, "kernel_initializer": {"config": {"mode": "fan_avg", "seed": null, "scale": 1.0, "distribution": "uniform"}, "class_name": "VarianceScaling"}, "kernel_regularizer": null, "dilation_rate": [1, 1], "bias_constraint": null, "padding": "same", "name": "conv2d_34", "trainable": true, "kernel_constraint": null, "data_format": "channels_last", "bias_regularizer": null, "strides": [1, 1], "filters": 192}, "class_name": "Conv2D", "inbound_nodes": [[["activation_33", 0, 0, {}]]]}, {"name": "conv2d_39", "config": {"bias_initializer": {"config": {}, "class_name": "Zeros"}, "activity_regularizer": null, "activation": "linear", "kernel_size": [1, 7], "use_bias": false, "kernel_initializer": {"config": {"mode": "fan_avg", "seed": null, "scale": 1.0, "distribution": "uniform"}, "class_name": "VarianceScaling"}, "kernel_regularizer": null, "dilation_rate": [1, 1], "bias_constraint": null, "padding": "same", "name": "conv2d_39", "trainable": true, "kernel_constraint": null, "data_format": "channels_last", "bias_regularizer": null, "strides": [1, 1], "filters": 192}, "class_name": "Conv2D", "inbound_nodes": [[["activation_38", 0, 0, {}]]]}, {"name": "conv2d_40", "config": {"bias_initializer": {"config": {}, "class_name": "Zeros"}, "activity_regularizer": null, "activation": "linear", "kernel_size": [1, 1], "use_bias": false, "kernel_initializer": {"config": {"mode": "fan_avg", "seed": null, "scale": 1.0, "distribution": "uniform"}, "class_name": "VarianceScaling"}, "kernel_regularizer": null, "dilation_rate": [1, 1], "bias_constraint": null, "padding": "same", "name": "conv2d_40", "trainable": true, "kernel_constraint": null, "data_format": "channels_last", "bias_regularizer": null, "strides": [1, 1], "filters": 192}, "class_name": "Conv2D", "inbound_nodes": [[["average_pooling2d_4", 0, 0, {}]]]}, {"name": "batch_normalization_31", "config": {"epsilon": 0.001, "name": "batch_normalization_31", "scale": false, "moving_mean_initializer": {"config": {}, "class_name": "Zeros"}, "gamma_regularizer": null, "gamma_initializer": {"config": {}, "class_name": "Ones"}, "beta_regularizer": null, "axis": 3, "moving_variance_initializer": {"config": {}, "class_name": "Ones"}, "gamma_constraint": null, "trainable": true, "beta_constraint": null, "center": true, "beta_initializer": {"config": {}, "class_name": "Zeros"}, "momentum": 0.99}, "class_name": "BatchNormalization", "inbound_nodes": [[["conv2d_31", 0, 0, {}]]]}, {"name": "batch_normalization_34", "config": {"epsilon": 0.001, "name": "batch_normalization_34", "scale": false, "moving_mean_initializer": {"config": {}, "class_name": "Zeros"}, "gamma_regularizer": null, "gamma_initializer": {"config": {}, "class_name": "Ones"}, "beta_regularizer": null, "axis": 3, "moving_variance_initializer": {"config": {}, "class_name": "Ones"}, "gamma_constraint": null, "trainable": true, "beta_constraint": null, "center": true, "beta_initializer": {"config": {}, "class_name": "Zeros"}, "momentum": 0.99}, "class_name": "BatchNormalization", "inbound_nodes": [[["conv2d_34", 0, 0, {}]]]}, {"name": "batch_normalization_39", "config": {"epsilon": 0.001, "name": "batch_normalization_39", "scale": false, "moving_mean_initializer": {"config": {}, "class_name": "Zeros"}, "gamma_regularizer": null, "gamma_initializer": {"config": {}, "class_name": "Ones"}, "beta_regularizer": null, "axis": 3, "moving_variance_initializer": {"config": {}, "class_name": "Ones"}, "gamma_constraint": null, "trainable": true, "beta_constraint": null, "center": true, "beta_initializer": {"config": {}, "class_name": "Zeros"}, "momentum": 0.99}, "class_name": "BatchNormalization", "inbound_nodes": [[["conv2d_39", 0, 0, {}]]]}, {"name": "batch_normalization_40", "config": {"epsilon": 0.001, "name": "batch_normalization_40", "scale": false, "moving_mean_initializer": {"config": {}, "class_name": "Zeros"}, "gamma_regularizer": null, "gamma_initializer": {"config": {}, "class_name": "Ones"}, "beta_regularizer": null, "axis": 3, "moving_variance_initializer": {"config": {}, "class_name": "Ones"}, "gamma_constraint": null, "trainable": true, "beta_constraint": null, "center": true, "beta_initializer": {"config": {}, "class_name": "Zeros"}, "momentum": 0.99}, "class_name": "BatchNormalization", "inbound_nodes": [[["conv2d_40", 0, 0, {}]]]}, {"name": "activation_31", "config": {"trainable": true, "activation": "relu", "name": "activation_31"}, "class_name": "Activation", "inbound_nodes": [[["batch_normalization_31", 0, 0, {}]]]}, {"name": "activation_34", "config": {"trainable": true, "activation": "relu", "name": "activation_34"}, "class_name": "Activation", "inbound_nodes": [[["batch_normalization_34", 0, 0, {}]]]}, {"name": "activation_39", "config": {"trainable": true, "activation": "relu", "name": "activation_39"}, "class_name": "Activation", "inbound_nodes": [[["batch_normalization_39", 0, 0, {}]]]}, {"name": "activation_40", "config": {"trainable": true, "activation": "relu", "name": "activation_40"}, "class_name": "Activation", "inbound_nodes": [[["batch_normalization_40", 0, 0, {}]]]}, {"name": "mixed4", "config": {"trainable": true, "name": "mixed4", "axis": 3}, "class_name": "Concatenate", "inbound_nodes": [[["activation_31", 0, 0, {}], ["activation_34", 0, 0, {}], ["activation_39", 0, 0, {}], ["activation_40", 0, 0, {}]]]}, {"name": "conv2d_45", "config": {"bias_initializer": {"config": {}, "class_name": "Zeros"}, "activity_regularizer": null, "activation": "linear", "kernel_size": [1, 1], "use_bias": false, "kernel_initializer": {"config": {"mode": "fan_avg", "seed": null, "scale": 1.0, "distribution": "uniform"}, "class_name": "VarianceScaling"}, "kernel_regularizer": null, "dilation_rate": [1, 1], "bias_constraint": null, "padding": "same", "name": "conv2d_45", "trainable": true, "kernel_constraint": null, "data_format": "channels_last", "bias_regularizer": null, "strides": [1, 1], "filters": 160}, "class_name": "Conv2D", "inbound_nodes": [[["mixed4", 0, 0, {}]]]}, {"name": "batch_normalization_45", "config": {"epsilon": 0.001, "name": "batch_normalization_45", "scale": false, "moving_mean_initializer": {"config": {}, "class_name": "Zeros"}, "gamma_regularizer": null, "gamma_initializer": {"config": {}, "class_name": "Ones"}, "beta_regularizer": null, "axis": 3, "moving_variance_initializer": {"config": {}, "class_name": "Ones"}, "gamma_constraint": null, "trainable": true, "beta_constraint": null, "center": true, "beta_initializer": {"config": {}, "class_name": "Zeros"}, "momentum": 0.99}, "class_name": "BatchNormalization", "inbound_nodes": [[["conv2d_45", 0, 0, {}]]]}, {"name": "activation_45", "config": {"trainable": true, "activation": "relu", "name": "activation_45"}, "class_name": "Activation", "inbound_nodes": [[["batch_normalization_45", 0, 0, {}]]]}, {"name": "conv2d_46", "config": {"bias_initializer": {"config": {}, "class_name": "Zeros"}, "activity_regularizer": null, "activation": "linear", "kernel_size": [7, 1], "use_bias": false, "kernel_initializer": {"config": {"mode": "fan_avg", "seed": null, "scale": 1.0, "distribution": "uniform"}, "class_name": "VarianceScaling"}, "kernel_regularizer": null, "dilation_rate": [1, 1], "bias_constraint": null, "padding": "same", "name": "conv2d_46", "trainable": true, "kernel_constraint": null, "data_format": "channels_last", "bias_regularizer": null, "strides": [1, 1], "filters": 160}, "class_name": "Conv2D", "inbound_nodes": [[["activation_45", 0, 0, {}]]]}, {"name": "batch_normalization_46", "config": {"epsilon": 0.001, "name": "batch_normalization_46", "scale": false, "moving_mean_initializer": {"config": {}, "class_name": "Zeros"}, "gamma_regularizer": null, "gamma_initializer": {"config": {}, "class_name": "Ones"}, "beta_regularizer": null, "axis": 3, "moving_variance_initializer": {"config": {}, "class_name": "Ones"}, "gamma_constraint": null, "trainable": true, "beta_constraint": null, "center": true, "beta_initializer": {"config": {}, "class_name": "Zeros"}, "momentum": 0.99}, "class_name": "BatchNormalization", "inbound_nodes": [[["conv2d_46", 0, 0, {}]]]}, {"name": "activation_46", "config": {"trainable": true, "activation": "relu", "name": "activation_46"}, "class_name": "Activation", "inbound_nodes": [[["batch_normalization_46", 0, 0, {}]]]}, {"name": "conv2d_42", "config": {"bias_initializer": {"config": {}, "class_name": "Zeros"}, "activity_regularizer": null, "activation": "linear", "kernel_size": [1, 1], "use_bias": false, "kernel_initializer": {"config": {"mode": "fan_avg", "seed": null, "scale": 1.0, "distribution": "uniform"}, "class_name": "VarianceScaling"}, "kernel_regularizer": null, "dilation_rate": [1, 1], "bias_constraint": null, "padding": "same", "name": "conv2d_42", "trainable": true, "kernel_constraint": null, "data_format": "channels_last", "bias_regularizer": null, "strides": [1, 1], "filters": 160}, "class_name": "Conv2D", "inbound_nodes": [[["mixed4", 0, 0, {}]]]}, {"name": "conv2d_47", "config": {"bias_initializer": {"config": {}, "class_name": "Zeros"}, "activity_regularizer": null, "activation": "linear", "kernel_size": [1, 7], "use_bias": false, "kernel_initializer": {"config": {"mode": "fan_avg", "seed": null, "scale": 1.0, "distribution": "uniform"}, "class_name": "VarianceScaling"}, "kernel_regularizer": null, "dilation_rate": [1, 1], "bias_constraint": null, "padding": "same", "name": "conv2d_47", "trainable": true, "kernel_constraint": null, "data_format": "channels_last", "bias_regularizer": null, "strides": [1, 1], "filters": 160}, "class_name": "Conv2D", "inbound_nodes": [[["activation_46", 0, 0, {}]]]}, {"name": "batch_normalization_42", "config": {"epsilon": 0.001, "name": "batch_normalization_42", "scale": false, "moving_mean_initializer": {"config": {}, "class_name": "Zeros"}, "gamma_regularizer": null, "gamma_initializer": {"config": {}, "class_name": "Ones"}, "beta_regularizer": null, "axis": 3, "moving_variance_initializer": {"config": {}, "class_name": "Ones"}, "gamma_constraint": null, "trainable": true, "beta_constraint": null, "center": true, "beta_initializer": {"config": {}, "class_name": "Zeros"}, "momentum": 0.99}, "class_name": "BatchNormalization", "inbound_nodes": [[["conv2d_42", 0, 0, {}]]]}, {"name": "batch_normalization_47", "config": {"epsilon": 0.001, "name": "batch_normalization_47", "scale": false, "moving_mean_initializer": {"config": {}, "class_name": "Zeros"}, "gamma_regularizer": null, "gamma_initializer": {"config": {}, "class_name": "Ones"}, "beta_regularizer": null, "axis": 3, "moving_variance_initializer": {"config": {}, "class_name": "Ones"}, "gamma_constraint": null, "trainable": true, "beta_constraint": null, "center": true, "beta_initializer": {"config": {}, "class_name": "Zeros"}, "momentum": 0.99}, "class_name": "BatchNormalization", "inbound_nodes": [[["conv2d_47", 0, 0, {}]]]}, {"name": "activation_42", "config": {"trainable": true, "activation": "relu", "name": "activation_42"}, "class_name": "Activation", "inbound_nodes": [[["batch_normalization_42", 0, 0, {}]]]}, {"name": "activation_47", "config": {"trainable": true, "activation": "relu", "name": "activation_47"}, "class_name": "Activation", "inbound_nodes": [[["batch_normalization_47", 0, 0, {}]]]}, {"name": "conv2d_43", "config": {"bias_initializer": {"config": {}, "class_name": "Zeros"}, "activity_regularizer": null, "activation": "linear", "kernel_size": [1, 7], "use_bias": false, "kernel_initializer": {"config": {"mode": "fan_avg", "seed": null, "scale": 1.0, "distribution": "uniform"}, "class_name": "VarianceScaling"}, "kernel_regularizer": null, "dilation_rate": [1, 1], "bias_constraint": null, "padding": "same", "name": "conv2d_43", "trainable": true, "kernel_constraint": null, "data_format": "channels_last", "bias_regularizer": null, "strides": [1, 1], "filters": 160}, "class_name": "Conv2D", "inbound_nodes": [[["activation_42", 0, 0, {}]]]}, {"name": "conv2d_48", "config": {"bias_initializer": {"config": {}, "class_name": "Zeros"}, "activity_regularizer": null, "activation": "linear", "kernel_size": [7, 1], "use_bias": false, "kernel_initializer": {"config": {"mode": "fan_avg", "seed": null, "scale": 1.0, "distribution": "uniform"}, "class_name": "VarianceScaling"}, "kernel_regularizer": null, "dilation_rate": [1, 1], "bias_constraint": null, "padding": "same", "name": "conv2d_48", "trainable": true, "kernel_constraint": null, "data_format": "channels_last", "bias_regularizer": null, "strides": [1, 1], "filters": 160}, "class_name": "Conv2D", "inbound_nodes": [[["activation_47", 0, 0, {}]]]}, {"name": "batch_normalization_43", "config": {"epsilon": 0.001, "name": "batch_normalization_43", "scale": false, "moving_mean_initializer": {"config": {}, "class_name": "Zeros"}, "gamma_regularizer": null, "gamma_initializer": {"config": {}, "class_name": "Ones"}, "beta_regularizer": null, "axis": 3, "moving_variance_initializer": {"config": {}, "class_name": "Ones"}, "gamma_constraint": null, "trainable": true, "beta_constraint": null, "center": true, "beta_initializer": {"config": {}, "class_name": "Zeros"}, "momentum": 0.99}, "class_name": "BatchNormalization", "inbound_nodes": [[["conv2d_43", 0, 0, {}]]]}, {"name": "batch_normalization_48", "config": {"epsilon": 0.001, "name": "batch_normalization_48", "scale": false, "moving_mean_initializer": {"config": {}, "class_name": "Zeros"}, "gamma_regularizer": null, "gamma_initializer": {"config": {}, "class_name": "Ones"}, "beta_regularizer": null, "axis": 3, "moving_variance_initializer": {"config": {}, "class_name": "Ones"}, "gamma_constraint": null, "trainable": true, "beta_constraint": null, "center": true, "beta_initializer": {"config": {}, "class_name": "Zeros"}, "momentum": 0.99}, "class_name": "BatchNormalization", "inbound_nodes": [[["conv2d_48", 0, 0, {}]]]}, {"name": "activation_43", "config": {"trainable": true, "activation": "relu", "name": "activation_43"}, "class_name": "Activation", "inbound_nodes": [[["batch_normalization_43", 0, 0, {}]]]}, {"name": "activation_48", "config": {"trainable": true, "activation": "relu", "name": "activation_48"}, "class_name": "Activation", "inbound_nodes": [[["batch_normalization_48", 0, 0, {}]]]}, {"name": "average_pooling2d_5", "config": {"name": "average_pooling2d_5", "pool_size": [3, 3], "data_format": "channels_last", "trainable": true, "strides": [1, 1], "padding": "same"}, "class_name": "AveragePooling2D", "inbound_nodes": [[["mixed4", 0, 0, {}]]]}, {"name": "conv2d_41", "config": {"bias_initializer": {"config": {}, "class_name": "Zeros"}, "activity_regularizer": null, "activation": "linear", "kernel_size": [1, 1], "use_bias": false, "kernel_initializer": {"config": {"mode": "fan_avg", "seed": null, "scale": 1.0, "distribution": "uniform"}, "class_name": "VarianceScaling"}, "kernel_regularizer": null, "dilation_rate": [1, 1], "bias_constraint": null, "padding": "same", "name": "conv2d_41", "trainable": true, "kernel_constraint": null, "data_format": "channels_last", "bias_regularizer": null, "strides": [1, 1], "filters": 192}, "class_name": "Conv2D", "inbound_nodes": [[["mixed4", 0, 0, {}]]]}, {"name": "conv2d_44", "config": {"bias_initializer": {"config": {}, "class_name": "Zeros"}, "activity_regularizer": null, "activation": "linear", "kernel_size": [7, 1], "use_bias": false, "kernel_initializer": {"config": {"mode": "fan_avg", "seed": null, "scale": 1.0, "distribution": "uniform"}, "class_name": "VarianceScaling"}, "kernel_regularizer": null, "dilation_rate": [1, 1], "bias_constraint": null, "padding": "same", "name": "conv2d_44", "trainable": true, "kernel_constraint": null, "data_format": "channels_last", "bias_regularizer": null, "strides": [1, 1], "filters": 192}, "class_name": "Conv2D", "inbound_nodes": [[["activation_43", 0, 0, {}]]]}, {"name": "conv2d_49", "config": {"bias_initializer": {"config": {}, "class_name": "Zeros"}, "activity_regularizer": null, "activation": "linear", "kernel_size": [1, 7], "use_bias": false, "kernel_initializer": {"config": {"mode": "fan_avg", "seed": null, "scale": 1.0, "distribution": "uniform"}, "class_name": "VarianceScaling"}, "kernel_regularizer": null, "dilation_rate": [1, 1], "bias_constraint": null, "padding": "same", "name": "conv2d_49", "trainable": true, "kernel_constraint": null, "data_format": "channels_last", "bias_regularizer": null, "strides": [1, 1], "filters": 192}, "class_name": "Conv2D", "inbound_nodes": [[["activation_48", 0, 0, {}]]]}, {"name": "conv2d_50", "config": {"bias_initializer": {"config": {}, "class_name": "Zeros"}, "activity_regularizer": null, "activation": "linear", "kernel_size": [1, 1], "use_bias": false, "kernel_initializer": {"config": {"mode": "fan_avg", "seed": null, "scale": 1.0, "distribution": "uniform"}, "class_name": "VarianceScaling"}, "kernel_regularizer": null, "dilation_rate": [1, 1], "bias_constraint": null, "padding": "same", "name": "conv2d_50", "trainable": true, "kernel_constraint": null, "data_format": "channels_last", "bias_regularizer": null, "strides": [1, 1], "filters": 192}, "class_name": "Conv2D", "inbound_nodes": [[["average_pooling2d_5", 0, 0, {}]]]}, {"name": "batch_normalization_41", "config": {"epsilon": 0.001, "name": "batch_normalization_41", "scale": false, "moving_mean_initializer": {"config": {}, "class_name": "Zeros"}, "gamma_regularizer": null, "gamma_initializer": {"config": {}, "class_name": "Ones"}, "beta_regularizer": null, "axis": 3, "moving_variance_initializer": {"config": {}, "class_name": "Ones"}, "gamma_constraint": null, "trainable": true, "beta_constraint": null, "center": true, "beta_initializer": {"config": {}, "class_name": "Zeros"}, "momentum": 0.99}, "class_name": "BatchNormalization", "inbound_nodes": [[["conv2d_41", 0, 0, {}]]]}, {"name": "batch_normalization_44", "config": {"epsilon": 0.001, "name": "batch_normalization_44", "scale": false, "moving_mean_initializer": {"config": {}, "class_name": "Zeros"}, "gamma_regularizer": null, "gamma_initializer": {"config": {}, "class_name": "Ones"}, "beta_regularizer": null, "axis": 3, "moving_variance_initializer": {"config": {}, "class_name": "Ones"}, "gamma_constraint": null, "trainable": true, "beta_constraint": null, "center": true, "beta_initializer": {"config": {}, "class_name": "Zeros"}, "momentum": 0.99}, "class_name": "BatchNormalization", "inbound_nodes": [[["conv2d_44", 0, 0, {}]]]}, {"name": "batch_normalization_49", "config": {"epsilon": 0.001, "name": "batch_normalization_49", "scale": false, "moving_mean_initializer": {"config": {}, "class_name": "Zeros"}, "gamma_regularizer": null, "gamma_initializer": {"config": {}, "class_name": "Ones"}, "beta_regularizer": null, "axis": 3, "moving_variance_initializer": {"config": {}, "class_name": "Ones"}, "gamma_constraint": null, "trainable": true, "beta_constraint": null, "center": true, "beta_initializer": {"config": {}, "class_name": "Zeros"}, "momentum": 0.99}, "class_name": "BatchNormalization", "inbound_nodes": [[["conv2d_49", 0, 0, {}]]]}, {"name": "batch_normalization_50", "config": {"epsilon": 0.001, "name": "batch_normalization_50", "scale": false, "moving_mean_initializer": {"config": {}, "class_name": "Zeros"}, "gamma_regularizer": null, "gamma_initializer": {"config": {}, "class_name": "Ones"}, "beta_regularizer": null, "axis": 3, "moving_variance_initializer": {"config": {}, "class_name": "Ones"}, "gamma_constraint": null, "trainable": true, "beta_constraint": null, "center": true, "beta_initializer": {"config": {}, "class_name": "Zeros"}, "momentum": 0.99}, "class_name": "BatchNormalization", "inbound_nodes": [[["conv2d_50", 0, 0, {}]]]}, {"name": "activation_41", "config": {"trainable": true, "activation": "relu", "name": "activation_41"}, "class_name": "Activation", "inbound_nodes": [[["batch_normalization_41", 0, 0, {}]]]}, {"name": "activation_44", "config": {"trainable": true, "activation": "relu", "name": "activation_44"}, "class_name": "Activation", "inbound_nodes": [[["batch_normalization_44", 0, 0, {}]]]}, {"name": "activation_49", "config": {"trainable": true, "activation": "relu", "name": "activation_49"}, "class_name": "Activation", "inbound_nodes": [[["batch_normalization_49", 0, 0, {}]]]}, {"name": "activation_50", "config": {"trainable": true, "activation": "relu", "name": "activation_50"}, "class_name": "Activation", "inbound_nodes": [[["batch_normalization_50", 0, 0, {}]]]}, {"name": "mixed5", "config": {"trainable": true, "name": "mixed5", "axis": 3}, "class_name": "Concatenate", "inbound_nodes": [[["activation_41", 0, 0, {}], ["activation_44", 0, 0, {}], ["activation_49", 0, 0, {}], ["activation_50", 0, 0, {}]]]}, {"name": "conv2d_55", "config": {"bias_initializer": {"config": {}, "class_name": "Zeros"}, "activity_regularizer": null, "activation": "linear", "kernel_size": [1, 1], "use_bias": false, "kernel_initializer": {"config": {"mode": "fan_avg", "seed": null, "scale": 1.0, "distribution": "uniform"}, "class_name": "VarianceScaling"}, "kernel_regularizer": null, "dilation_rate": [1, 1], "bias_constraint": null, "padding": "same", "name": "conv2d_55", "trainable": true, "kernel_constraint": null, "data_format": "channels_last", "bias_regularizer": null, "strides": [1, 1], "filters": 160}, "class_name": "Conv2D", "inbound_nodes": [[["mixed5", 0, 0, {}]]]}, {"name": "batch_normalization_55", "config": {"epsilon": 0.001, "name": "batch_normalization_55", "scale": false, "moving_mean_initializer": {"config": {}, "class_name": "Zeros"}, "gamma_regularizer": null, "gamma_initializer": {"config": {}, "class_name": "Ones"}, "beta_regularizer": null, "axis": 3, "moving_variance_initializer": {"config": {}, "class_name": "Ones"}, "gamma_constraint": null, "trainable": true, "beta_constraint": null, "center": true, "beta_initializer": {"config": {}, "class_name": "Zeros"}, "momentum": 0.99}, "class_name": "BatchNormalization", "inbound_nodes": [[["conv2d_55", 0, 0, {}]]]}, {"name": "activation_55", "config": {"trainable": true, "activation": "relu", "name": "activation_55"}, "class_name": "Activation", "inbound_nodes": [[["batch_normalization_55", 0, 0, {}]]]}, {"name": "conv2d_56", "config": {"bias_initializer": {"config": {}, "class_name": "Zeros"}, "activity_regularizer": null, "activation": "linear", "kernel_size": [7, 1], "use_bias": false, "kernel_initializer": {"config": {"mode": "fan_avg", "seed": null, "scale": 1.0, "distribution": "uniform"}, "class_name": "VarianceScaling"}, "kernel_regularizer": null, "dilation_rate": [1, 1], "bias_constraint": null, "padding": "same", "name": "conv2d_56", "trainable": true, "kernel_constraint": null, "data_format": "channels_last", "bias_regularizer": null, "strides": [1, 1], "filters": 160}, "class_name": "Conv2D", "inbound_nodes": [[["activation_55", 0, 0, {}]]]}, {"name": "batch_normalization_56", "config": {"epsilon": 0.001, "name": "batch_normalization_56", "scale": false, "moving_mean_initializer": {"config": {}, "class_name": "Zeros"}, "gamma_regularizer": null, "gamma_initializer": {"config": {}, "class_name": "Ones"}, "beta_regularizer": null, "axis": 3, "moving_variance_initializer": {"config": {}, "class_name": "Ones"}, "gamma_constraint": null, "trainable": true, "beta_constraint": null, "center": true, "beta_initializer": {"config": {}, "class_name": "Zeros"}, "momentum": 0.99}, "class_name": "BatchNormalization", "inbound_nodes": [[["conv2d_56", 0, 0, {}]]]}, {"name": "activation_56", "config": {"trainable": true, "activation": "relu", "name": "activation_56"}, "class_name": "Activation", "inbound_nodes": [[["batch_normalization_56", 0, 0, {}]]]}, {"name": "conv2d_52", "config": {"bias_initializer": {"config": {}, "class_name": "Zeros"}, "activity_regularizer": null, "activation": "linear", "kernel_size": [1, 1], "use_bias": false, "kernel_initializer": {"config": {"mode": "fan_avg", "seed": null, "scale": 1.0, "distribution": "uniform"}, "class_name": "VarianceScaling"}, "kernel_regularizer": null, "dilation_rate": [1, 1], "bias_constraint": null, "padding": "same", "name": "conv2d_52", "trainable": true, "kernel_constraint": null, "data_format": "channels_last", "bias_regularizer": null, "strides": [1, 1], "filters": 160}, "class_name": "Conv2D", "inbound_nodes": [[["mixed5", 0, 0, {}]]]}, {"name": "conv2d_57", "config": {"bias_initializer": {"config": {}, "class_name": "Zeros"}, "activity_regularizer": null, "activation": "linear", "kernel_size": [1, 7], "use_bias": false, "kernel_initializer": {"config": {"mode": "fan_avg", "seed": null, "scale": 1.0, "distribution": "uniform"}, "class_name": "VarianceScaling"}, "kernel_regularizer": null, "dilation_rate": [1, 1], "bias_constraint": null, "padding": "same", "name": "conv2d_57", "trainable": true, "kernel_constraint": null, "data_format": "channels_last", "bias_regularizer": null, "strides": [1, 1], "filters": 160}, "class_name": "Conv2D", "inbound_nodes": [[["activation_56", 0, 0, {}]]]}, {"name": "batch_normalization_52", "config": {"epsilon": 0.001, "name": "batch_normalization_52", "scale": false, "moving_mean_initializer": {"config": {}, "class_name": "Zeros"}, "gamma_regularizer": null, "gamma_initializer": {"config": {}, "class_name": "Ones"}, "beta_regularizer": null, "axis": 3, "moving_variance_initializer": {"config": {}, "class_name": "Ones"}, "gamma_constraint": null, "trainable": true, "beta_constraint": null, "center": true, "beta_initializer": {"config": {}, "class_name": "Zeros"}, "momentum": 0.99}, "class_name": "BatchNormalization", "inbound_nodes": [[["conv2d_52", 0, 0, {}]]]}, {"name": "batch_normalization_57", "config": {"epsilon": 0.001, "name": "batch_normalization_57", "scale": false, "moving_mean_initializer": {"config": {}, "class_name": "Zeros"}, "gamma_regularizer": null, "gamma_initializer": {"config": {}, "class_name": "Ones"}, "beta_regularizer": null, "axis": 3, "moving_variance_initializer": {"config": {}, "class_name": "Ones"}, "gamma_constraint": null, "trainable": true, "beta_constraint": null, "center": true, "beta_initializer": {"config": {}, "class_name": "Zeros"}, "momentum": 0.99}, "class_name": "BatchNormalization", "inbound_nodes": [[["conv2d_57", 0, 0, {}]]]}, {"name": "activation_52", "config": {"trainable": true, "activation": "relu", "name": "activation_52"}, "class_name": "Activation", "inbound_nodes": [[["batch_normalization_52", 0, 0, {}]]]}, {"name": "activation_57", "config": {"trainable": true, "activation": "relu", "name": "activation_57"}, "class_name": "Activation", "inbound_nodes": [[["batch_normalization_57", 0, 0, {}]]]}, {"name": "conv2d_53", "config": {"bias_initializer": {"config": {}, "class_name": "Zeros"}, "activity_regularizer": null, "activation": "linear", "kernel_size": [1, 7], "use_bias": false, "kernel_initializer": {"config": {"mode": "fan_avg", "seed": null, "scale": 1.0, "distribution": "uniform"}, "class_name": "VarianceScaling"}, "kernel_regularizer": null, "dilation_rate": [1, 1], "bias_constraint": null, "padding": "same", "name": "conv2d_53", "trainable": true, "kernel_constraint": null, "data_format": "channels_last", "bias_regularizer": null, "strides": [1, 1], "filters": 160}, "class_name": "Conv2D", "inbound_nodes": [[["activation_52", 0, 0, {}]]]}, {"name": "conv2d_58", "config": {"bias_initializer": {"config": {}, "class_name": "Zeros"}, "activity_regularizer": null, "activation": "linear", "kernel_size": [7, 1], "use_bias": false, "kernel_initializer": {"config": {"mode": "fan_avg", "seed": null, "scale": 1.0, "distribution": "uniform"}, "class_name": "VarianceScaling"}, "kernel_regularizer": null, "dilation_rate": [1, 1], "bias_constraint": null, "padding": "same", "name": "conv2d_58", "trainable": true, "kernel_constraint": null, "data_format": "channels_last", "bias_regularizer": null, "strides": [1, 1], "filters": 160}, "class_name": "Conv2D", "inbound_nodes": [[["activation_57", 0, 0, {}]]]}, {"name": "batch_normalization_53", "config": {"epsilon": 0.001, "name": "batch_normalization_53", "scale": false, "moving_mean_initializer": {"config": {}, "class_name": "Zeros"}, "gamma_regularizer": null, "gamma_initializer": {"config": {}, "class_name": "Ones"}, "beta_regularizer": null, "axis": 3, "moving_variance_initializer": {"config": {}, "class_name": "Ones"}, "gamma_constraint": null, "trainable": true, "beta_constraint": null, "center": true, "beta_initializer": {"config": {}, "class_name": "Zeros"}, "momentum": 0.99}, "class_name": "BatchNormalization", "inbound_nodes": [[["conv2d_53", 0, 0, {}]]]}, {"name": "batch_normalization_58", "config": {"epsilon": 0.001, "name": "batch_normalization_58", "scale": false, "moving_mean_initializer": {"config": {}, "class_name": "Zeros"}, "gamma_regularizer": null, "gamma_initializer": {"config": {}, "class_name": "Ones"}, "beta_regularizer": null, "axis": 3, "moving_variance_initializer": {"config": {}, "class_name": "Ones"}, "gamma_constraint": null, "trainable": true, "beta_constraint": null, "center": true, "beta_initializer": {"config": {}, "class_name": "Zeros"}, "momentum": 0.99}, "class_name": "BatchNormalization", "inbound_nodes": [[["conv2d_58", 0, 0, {}]]]}, {"name": "activation_53", "config": {"trainable": true, "activation": "relu", "name": "activation_53"}, "class_name": "Activation", "inbound_nodes": [[["batch_normalization_53", 0, 0, {}]]]}, {"name": "activation_58", "config": {"trainable": true, "activation": "relu", "name": "activation_58"}, "class_name": "Activation", "inbound_nodes": [[["batch_normalization_58", 0, 0, {}]]]}, {"name": "average_pooling2d_6", "config": {"name": "average_pooling2d_6", "pool_size": [3, 3], "data_format": "channels_last", "trainable": true, "strides": [1, 1], "padding": "same"}, "class_name": "AveragePooling2D", "inbound_nodes": [[["mixed5", 0, 0, {}]]]}, {"name": "conv2d_51", "config": {"bias_initializer": {"config": {}, "class_name": "Zeros"}, "activity_regularizer": null, "activation": "linear", "kernel_size": [1, 1], "use_bias": false, "kernel_initializer": {"config": {"mode": "fan_avg", "seed": null, "scale": 1.0, "distribution": "uniform"}, "class_name": "VarianceScaling"}, "kernel_regularizer": null, "dilation_rate": [1, 1], "bias_constraint": null, "padding": "same", "name": "conv2d_51", "trainable": true, "kernel_constraint": null, "data_format": "channels_last", "bias_regularizer": null, "strides": [1, 1], "filters": 192}, "class_name": "Conv2D", "inbound_nodes": [[["mixed5", 0, 0, {}]]]}, {"name": "conv2d_54", "config": {"bias_initializer": {"config": {}, "class_name": "Zeros"}, "activity_regularizer": null, "activation": "linear", "kernel_size": [7, 1], "use_bias": false, "kernel_initializer": {"config": {"mode": "fan_avg", "seed": null, "scale": 1.0, "distribution": "uniform"}, "class_name": "VarianceScaling"}, "kernel_regularizer": null, "dilation_rate": [1, 1], "bias_constraint": null, "padding": "same", "name": "conv2d_54", "trainable": true, "kernel_constraint": null, "data_format": "channels_last", "bias_regularizer": null, "strides": [1, 1], "filters": 192}, "class_name": "Conv2D", "inbound_nodes": [[["activation_53", 0, 0, {}]]]}, {"name": "conv2d_59", "config": {"bias_initializer": {"config": {}, "class_name": "Zeros"}, "activity_regularizer": null, "activation": "linear", "kernel_size": [1, 7], "use_bias": false, "kernel_initializer": {"config": {"mode": "fan_avg", "seed": null, "scale": 1.0, "distribution": "uniform"}, "class_name": "VarianceScaling"}, "kernel_regularizer": null, "dilation_rate": [1, 1], "bias_constraint": null, "padding": "same", "name": "conv2d_59", "trainable": true, "kernel_constraint": null, "data_format": "channels_last", "bias_regularizer": null, "strides": [1, 1], "filters": 192}, "class_name": "Conv2D", "inbound_nodes": [[["activation_58", 0, 0, {}]]]}, {"name": "conv2d_60", "config": {"bias_initializer": {"config": {}, "class_name": "Zeros"}, "activity_regularizer": null, "activation": "linear", "kernel_size": [1, 1], "use_bias": false, "kernel_initializer": {"config": {"mode": "fan_avg", "seed": null, "scale": 1.0, "distribution": "uniform"}, "class_name": "VarianceScaling"}, "kernel_regularizer": null, "dilation_rate": [1, 1], "bias_constraint": null, "padding": "same", "name": "conv2d_60", "trainable": true, "kernel_constraint": null, "data_format": "channels_last", "bias_regularizer": null, "strides": [1, 1], "filters": 192}, "class_name": "Conv2D", "inbound_nodes": [[["average_pooling2d_6", 0, 0, {}]]]}, {"name": "batch_normalization_51", "config": {"epsilon": 0.001, "name": "batch_normalization_51", "scale": false, "moving_mean_initializer": {"config": {}, "class_name": "Zeros"}, "gamma_regularizer": null, "gamma_initializer": {"config": {}, "class_name": "Ones"}, "beta_regularizer": null, "axis": 3, "moving_variance_initializer": {"config": {}, "class_name": "Ones"}, "gamma_constraint": null, "trainable": true, "beta_constraint": null, "center": true, "beta_initializer": {"config": {}, "class_name": "Zeros"}, "momentum": 0.99}, "class_name": "BatchNormalization", "inbound_nodes": [[["conv2d_51", 0, 0, {}]]]}, {"name": "batch_normalization_54", "config": {"epsilon": 0.001, "name": "batch_normalization_54", "scale": false, "moving_mean_initializer": {"config": {}, "class_name": "Zeros"}, "gamma_regularizer": null, "gamma_initializer": {"config": {}, "class_name": "Ones"}, "beta_regularizer": null, "axis": 3, "moving_variance_initializer": {"config": {}, "class_name": "Ones"}, "gamma_constraint": null, "trainable": true, "beta_constraint": null, "center": true, "beta_initializer": {"config": {}, "class_name": "Zeros"}, "momentum": 0.99}, "class_name": "BatchNormalization", "inbound_nodes": [[["conv2d_54", 0, 0, {}]]]}, {"name": "batch_normalization_59", "config": {"epsilon": 0.001, "name": "batch_normalization_59", "scale": false, "moving_mean_initializer": {"config": {}, "class_name": "Zeros"}, "gamma_regularizer": null, "gamma_initializer": {"config": {}, "class_name": "Ones"}, "beta_regularizer": null, "axis": 3, "moving_variance_initializer": {"config": {}, "class_name": "Ones"}, "gamma_constraint": null, "trainable": true, "beta_constraint": null, "center": true, "beta_initializer": {"config": {}, "class_name": "Zeros"}, "momentum": 0.99}, "class_name": "BatchNormalization", "inbound_nodes": [[["conv2d_59", 0, 0, {}]]]}, {"name": "batch_normalization_60", "config": {"epsilon": 0.001, "name": "batch_normalization_60", "scale": false, "moving_mean_initializer": {"config": {}, "class_name": "Zeros"}, "gamma_regularizer": null, "gamma_initializer": {"config": {}, "class_name": "Ones"}, "beta_regularizer": null, "axis": 3, "moving_variance_initializer": {"config": {}, "class_name": "Ones"}, "gamma_constraint": null, "trainable": true, "beta_constraint": null, "center": true, "beta_initializer": {"config": {}, "class_name": "Zeros"}, "momentum": 0.99}, "class_name": "BatchNormalization", "inbound_nodes": [[["conv2d_60", 0, 0, {}]]]}, {"name": "activation_51", "config": {"trainable": true, "activation": "relu", "name": "activation_51"}, "class_name": "Activation", "inbound_nodes": [[["batch_normalization_51", 0, 0, {}]]]}, {"name": "activation_54", "config": {"trainable": true, "activation": "relu", "name": "activation_54"}, "class_name": "Activation", "inbound_nodes": [[["batch_normalization_54", 0, 0, {}]]]}, {"name": "activation_59", "config": {"trainable": true, "activation": "relu", "name": "activation_59"}, "class_name": "Activation", "inbound_nodes": [[["batch_normalization_59", 0, 0, {}]]]}, {"name": "activation_60", "config": {"trainable": true, "activation": "relu", "name": "activation_60"}, "class_name": "Activation", "inbound_nodes": [[["batch_normalization_60", 0, 0, {}]]]}, {"name": "mixed6", "config": {"trainable": true, "name": "mixed6", "axis": 3}, "class_name": "Concatenate", "inbound_nodes": [[["activation_51", 0, 0, {}], ["activation_54", 0, 0, {}], ["activation_59", 0, 0, {}], ["activation_60", 0, 0, {}]]]}, {"name": "conv2d_65", "config": {"bias_initializer": {"config": {}, "class_name": "Zeros"}, "activity_regularizer": null, "activation": "linear", "kernel_size": [1, 1], "use_bias": false, "kernel_initializer": {"config": {"mode": "fan_avg", "seed": null, "scale": 1.0, "distribution": "uniform"}, "class_name": "VarianceScaling"}, "kernel_regularizer": null, "dilation_rate": [1, 1], "bias_constraint": null, "padding": "same", "name": "conv2d_65", "trainable": true, "kernel_constraint": null, "data_format": "channels_last", "bias_regularizer": null, "strides": [1, 1], "filters": 192}, "class_name": "Conv2D", "inbound_nodes": [[["mixed6", 0, 0, {}]]]}, {"name": "batch_normalization_65", "config": {"epsilon": 0.001, "name": "batch_normalization_65", "scale": false, "moving_mean_initializer": {"config": {}, "class_name": "Zeros"}, "gamma_regularizer": null, "gamma_initializer": {"config": {}, "class_name": "Ones"}, "beta_regularizer": null, "axis": 3, "moving_variance_initializer": {"config": {}, "class_name": "Ones"}, "gamma_constraint": null, "trainable": true, "beta_constraint": null, "center": true, "beta_initializer": {"config": {}, "class_name": "Zeros"}, "momentum": 0.99}, "class_name": "BatchNormalization", "inbound_nodes": [[["conv2d_65", 0, 0, {}]]]}, {"name": "activation_65", "config": {"trainable": true, "activation": "relu", "name": "activation_65"}, "class_name": "Activation", "inbound_nodes": [[["batch_normalization_65", 0, 0, {}]]]}, {"name": "conv2d_66", "config": {"bias_initializer": {"config": {}, "class_name": "Zeros"}, "activity_regularizer": null, "activation": "linear", "kernel_size": [7, 1], "use_bias": false, "kernel_initializer": {"config": {"mode": "fan_avg", "seed": null, "scale": 1.0, "distribution": "uniform"}, "class_name": "VarianceScaling"}, "kernel_regularizer": null, "dilation_rate": [1, 1], "bias_constraint": null, "padding": "same", "name": "conv2d_66", "trainable": true, "kernel_constraint": null, "data_format": "channels_last", "bias_regularizer": null, "strides": [1, 1], "filters": 192}, "class_name": "Conv2D", "inbound_nodes": [[["activation_65", 0, 0, {}]]]}, {"name": "batch_normalization_66", "config": {"epsilon": 0.001, "name": "batch_normalization_66", "scale": false, "moving_mean_initializer": {"config": {}, "class_name": "Zeros"}, "gamma_regularizer": null, "gamma_initializer": {"config": {}, "class_name": "Ones"}, "beta_regularizer": null, "axis": 3, "moving_variance_initializer": {"config": {}, "class_name": "Ones"}, "gamma_constraint": null, "trainable": true, "beta_constraint": null, "center": true, "beta_initializer": {"config": {}, "class_name": "Zeros"}, "momentum": 0.99}, "class_name": "BatchNormalization", "inbound_nodes": [[["conv2d_66", 0, 0, {}]]]}, {"name": "activation_66", "config": {"trainable": true, "activation": "relu", "name": "activation_66"}, "class_name": "Activation", "inbound_nodes": [[["batch_normalization_66", 0, 0, {}]]]}, {"name": "conv2d_62", "config": {"bias_initializer": {"config": {}, "class_name": "Zeros"}, "activity_regularizer": null, "activation": "linear", "kernel_size": [1, 1], "use_bias": false, "kernel_initializer": {"config": {"mode": "fan_avg", "seed": null, "scale": 1.0, "distribution": "uniform"}, "class_name": "VarianceScaling"}, "kernel_regularizer": null, "dilation_rate": [1, 1], "bias_constraint": null, "padding": "same", "name": "conv2d_62", "trainable": true, "kernel_constraint": null, "data_format": "channels_last", "bias_regularizer": null, "strides": [1, 1], "filters": 192}, "class_name": "Conv2D", "inbound_nodes": [[["mixed6", 0, 0, {}]]]}, {"name": "conv2d_67", "config": {"bias_initializer": {"config": {}, "class_name": "Zeros"}, "activity_regularizer": null, "activation": "linear", "kernel_size": [1, 7], "use_bias": false, "kernel_initializer": {"config": {"mode": "fan_avg", "seed": null, "scale": 1.0, "distribution": "uniform"}, "class_name": "VarianceScaling"}, "kernel_regularizer": null, "dilation_rate": [1, 1], "bias_constraint": null, "padding": "same", "name": "conv2d_67", "trainable": true, "kernel_constraint": null, "data_format": "channels_last", "bias_regularizer": null, "strides": [1, 1], "filters": 192}, "class_name": "Conv2D", "inbound_nodes": [[["activation_66", 0, 0, {}]]]}, {"name": "batch_normalization_62", "config": {"epsilon": 0.001, "name": "batch_normalization_62", "scale": false, "moving_mean_initializer": {"config": {}, "class_name": "Zeros"}, "gamma_regularizer": null, "gamma_initializer": {"config": {}, "class_name": "Ones"}, "beta_regularizer": null, "axis": 3, "moving_variance_initializer": {"config": {}, "class_name": "Ones"}, "gamma_constraint": null, "trainable": true, "beta_constraint": null, "center": true, "beta_initializer": {"config": {}, "class_name": "Zeros"}, "momentum": 0.99}, "class_name": "BatchNormalization", "inbound_nodes": [[["conv2d_62", 0, 0, {}]]]}, {"name": "batch_normalization_67", "config": {"epsilon": 0.001, "name": "batch_normalization_67", "scale": false, "moving_mean_initializer": {"config": {}, "class_name": "Zeros"}, "gamma_regularizer": null, "gamma_initializer": {"config": {}, "class_name": "Ones"}, "beta_regularizer": null, "axis": 3, "moving_variance_initializer": {"config": {}, "class_name": "Ones"}, "gamma_constraint": null, "trainable": true, "beta_constraint": null, "center": true, "beta_initializer": {"config": {}, "class_name": "Zeros"}, "momentum": 0.99}, "class_name": "BatchNormalization", "inbound_nodes": [[["conv2d_67", 0, 0, {}]]]}, {"name": "activation_62", "config": {"trainable": true, "activation": "relu", "name": "activation_62"}, "class_name": "Activation", "inbound_nodes": [[["batch_normalization_62", 0, 0, {}]]]}, {"name": "activation_67", "config": {"trainable": true, "activation": "relu", "name": "activation_67"}, "class_name": "Activation", "inbound_nodes": [[["batch_normalization_67", 0, 0, {}]]]}, {"name": "conv2d_63", "config": {"bias_initializer": {"config": {}, "class_name": "Zeros"}, "activity_regularizer": null, "activation": "linear", "kernel_size": [1, 7], "use_bias": false, "kernel_initializer": {"config": {"mode": "fan_avg", "seed": null, "scale": 1.0, "distribution": "uniform"}, "class_name": "VarianceScaling"}, "kernel_regularizer": null, "dilation_rate": [1, 1], "bias_constraint": null, "padding": "same", "name": "conv2d_63", "trainable": true, "kernel_constraint": null, "data_format": "channels_last", "bias_regularizer": null, "strides": [1, 1], "filters": 192}, "class_name": "Conv2D", "inbound_nodes": [[["activation_62", 0, 0, {}]]]}, {"name": "conv2d_68", "config": {"bias_initializer": {"config": {}, "class_name": "Zeros"}, "activity_regularizer": null, "activation": "linear", "kernel_size": [7, 1], "use_bias": false, "kernel_initializer": {"config": {"mode": "fan_avg", "seed": null, "scale": 1.0, "distribution": "uniform"}, "class_name": "VarianceScaling"}, "kernel_regularizer": null, "dilation_rate": [1, 1], "bias_constraint": null, "padding": "same", "name": "conv2d_68", "trainable": true, "kernel_constraint": null, "data_format": "channels_last", "bias_regularizer": null, "strides": [1, 1], "filters": 192}, "class_name": "Conv2D", "inbound_nodes": [[["activation_67", 0, 0, {}]]]}, {"name": "batch_normalization_63", "config": {"epsilon": 0.001, "name": "batch_normalization_63", "scale": false, "moving_mean_initializer": {"config": {}, "class_name": "Zeros"}, "gamma_regularizer": null, "gamma_initializer": {"config": {}, "class_name": "Ones"}, "beta_regularizer": null, "axis": 3, "moving_variance_initializer": {"config": {}, "class_name": "Ones"}, "gamma_constraint": null, "trainable": true, "beta_constraint": null, "center": true, "beta_initializer": {"config": {}, "class_name": "Zeros"}, "momentum": 0.99}, "class_name": "BatchNormalization", "inbound_nodes": [[["conv2d_63", 0, 0, {}]]]}, {"name": "batch_normalization_68", "config": {"epsilon": 0.001, "name": "batch_normalization_68", "scale": false, "moving_mean_initializer": {"config": {}, "class_name": "Zeros"}, "gamma_regularizer": null, "gamma_initializer": {"config": {}, "class_name": "Ones"}, "beta_regularizer": null, "axis": 3, "moving_variance_initializer": {"config": {}, "class_name": "Ones"}, "gamma_constraint": null, "trainable": true, "beta_constraint": null, "center": true, "beta_initializer": {"config": {}, "class_name": "Zeros"}, "momentum": 0.99}, "class_name": "BatchNormalization", "inbound_nodes": [[["conv2d_68", 0, 0, {}]]]}, {"name": "activation_63", "config": {"trainable": true, "activation": "relu", "name": "activation_63"}, "class_name": "Activation", "inbound_nodes": [[["batch_normalization_63", 0, 0, {}]]]}, {"name": "activation_68", "config": {"trainable": true, "activation": "relu", "name": "activation_68"}, "class_name": "Activation", "inbound_nodes": [[["batch_normalization_68", 0, 0, {}]]]}, {"name": "average_pooling2d_7", "config": {"name": "average_pooling2d_7", "pool_size": [3, 3], "data_format": "channels_last", "trainable": true, "strides": [1, 1], "padding": "same"}, "class_name": "AveragePooling2D", "inbound_nodes": [[["mixed6", 0, 0, {}]]]}, {"name": "conv2d_61", "config": {"bias_initializer": {"config": {}, "class_name": "Zeros"}, "activity_regularizer": null, "activation": "linear", "kernel_size": [1, 1], "use_bias": false, "kernel_initializer": {"config": {"mode": "fan_avg", "seed": null, "scale": 1.0, "distribution": "uniform"}, "class_name": "VarianceScaling"}, "kernel_regularizer": null, "dilation_rate": [1, 1], "bias_constraint": null, "padding": "same", "name": "conv2d_61", "trainable": true, "kernel_constraint": null, "data_format": "channels_last", "bias_regularizer": null, "strides": [1, 1], "filters": 192}, "class_name": "Conv2D", "inbound_nodes": [[["mixed6", 0, 0, {}]]]}, {"name": "conv2d_64", "config": {"bias_initializer": {"config": {}, "class_name": "Zeros"}, "activity_regularizer": null, "activation": "linear", "kernel_size": [7, 1], "use_bias": false, "kernel_initializer": {"config": {"mode": "fan_avg", "seed": null, "scale": 1.0, "distribution": "uniform"}, "class_name": "VarianceScaling"}, "kernel_regularizer": null, "dilation_rate": [1, 1], "bias_constraint": null, "padding": "same", "name": "conv2d_64", "trainable": true, "kernel_constraint": null, "data_format": "channels_last", "bias_regularizer": null, "strides": [1, 1], "filters": 192}, "class_name": "Conv2D", "inbound_nodes": [[["activation_63", 0, 0, {}]]]}, {"name": "conv2d_69", "config": {"bias_initializer": {"config": {}, "class_name": "Zeros"}, "activity_regularizer": null, "activation": "linear", "kernel_size": [1, 7], "use_bias": false, "kernel_initializer": {"config": {"mode": "fan_avg", "seed": null, "scale": 1.0, "distribution": "uniform"}, "class_name": "VarianceScaling"}, "kernel_regularizer": null, "dilation_rate": [1, 1], "bias_constraint": null, "padding": "same", "name": "conv2d_69", "trainable": true, "kernel_constraint": null, "data_format": "channels_last", "bias_regularizer": null, "strides": [1, 1], "filters": 192}, "class_name": "Conv2D", "inbound_nodes": [[["activation_68", 0, 0, {}]]]}, {"name": "conv2d_70", "config": {"bias_initializer": {"config": {}, "class_name": "Zeros"}, "activity_regularizer": null, "activation": "linear", "kernel_size": [1, 1], "use_bias": false, "kernel_initializer": {"config": {"mode": "fan_avg", "seed": null, "scale": 1.0, "distribution": "uniform"}, "class_name": "VarianceScaling"}, "kernel_regularizer": null, "dilation_rate": [1, 1], "bias_constraint": null, "padding": "same", "name": "conv2d_70", "trainable": true, "kernel_constraint": null, "data_format": "channels_last", "bias_regularizer": null, "strides": [1, 1], "filters": 192}, "class_name": "Conv2D", "inbound_nodes": [[["average_pooling2d_7", 0, 0, {}]]]}, {"name": "batch_normalization_61", "config": {"epsilon": 0.001, "name": "batch_normalization_61", "scale": false, "moving_mean_initializer": {"config": {}, "class_name": "Zeros"}, "gamma_regularizer": null, "gamma_initializer": {"config": {}, "class_name": "Ones"}, "beta_regularizer": null, "axis": 3, "moving_variance_initializer": {"config": {}, "class_name": "Ones"}, "gamma_constraint": null, "trainable": true, "beta_constraint": null, "center": true, "beta_initializer": {"config": {}, "class_name": "Zeros"}, "momentum": 0.99}, "class_name": "BatchNormalization", "inbound_nodes": [[["conv2d_61", 0, 0, {}]]]}, {"name": "batch_normalization_64", "config": {"epsilon": 0.001, "name": "batch_normalization_64", "scale": false, "moving_mean_initializer": {"config": {}, "class_name": "Zeros"}, "gamma_regularizer": null, "gamma_initializer": {"config": {}, "class_name": "Ones"}, "beta_regularizer": null, "axis": 3, "moving_variance_initializer": {"config": {}, "class_name": "Ones"}, "gamma_constraint": null, "trainable": true, "beta_constraint": null, "center": true, "beta_initializer": {"config": {}, "class_name": "Zeros"}, "momentum": 0.99}, "class_name": "BatchNormalization", "inbound_nodes": [[["conv2d_64", 0, 0, {}]]]}, {"name": "batch_normalization_69", "config": {"epsilon": 0.001, "name": "batch_normalization_69", "scale": false, "moving_mean_initializer": {"config": {}, "class_name": "Zeros"}, "gamma_regularizer": null, "gamma_initializer": {"config": {}, "class_name": "Ones"}, "beta_regularizer": null, "axis": 3, "moving_variance_initializer": {"config": {}, "class_name": "Ones"}, "gamma_constraint": null, "trainable": true, "beta_constraint": null, "center": true, "beta_initializer": {"config": {}, "class_name": "Zeros"}, "momentum": 0.99}, "class_name": "BatchNormalization", "inbound_nodes": [[["conv2d_69", 0, 0, {}]]]}, {"name": "batch_normalization_70", "config": {"epsilon": 0.001, "name": "batch_normalization_70", "scale": false, "moving_mean_initializer": {"config": {}, "class_name": "Zeros"}, "gamma_regularizer": null, "gamma_initializer": {"config": {}, "class_name": "Ones"}, "beta_regularizer": null, "axis": 3, "moving_variance_initializer": {"config": {}, "class_name": "Ones"}, "gamma_constraint": null, "trainable": true, "beta_constraint": null, "center": true, "beta_initializer": {"config": {}, "class_name": "Zeros"}, "momentum": 0.99}, "class_name": "BatchNormalization", "inbound_nodes": [[["conv2d_70", 0, 0, {}]]]}, {"name": "activation_61", "config": {"trainable": true, "activation": "relu", "name": "activation_61"}, "class_name": "Activation", "inbound_nodes": [[["batch_normalization_61", 0, 0, {}]]]}, {"name": "activation_64", "config": {"trainable": true, "activation": "relu", "name": "activation_64"}, "class_name": "Activation", "inbound_nodes": [[["batch_normalization_64", 0, 0, {}]]]}, {"name": "activation_69", "config": {"trainable": true, "activation": "relu", "name": "activation_69"}, "class_name": "Activation", "inbound_nodes": [[["batch_normalization_69", 0, 0, {}]]]}, {"name": "activation_70", "config": {"trainable": true, "activation": "relu", "name": "activation_70"}, "class_name": "Activation", "inbound_nodes": [[["batch_normalization_70", 0, 0, {}]]]}, {"name": "mixed7", "config": {"trainable": true, "name": "mixed7", "axis": 3}, "class_name": "Concatenate", "inbound_nodes": [[["activation_61", 0, 0, {}], ["activation_64", 0, 0, {}], ["activation_69", 0, 0, {}], ["activation_70", 0, 0, {}]]]}, {"name": "conv2d_73", "config": {"bias_initializer": {"config": {}, "class_name": "Zeros"}, "activity_regularizer": null, "activation": "linear", "kernel_size": [1, 1], "use_bias": false, "kernel_initializer": {"config": {"mode": "fan_avg", "seed": null, "scale": 1.0, "distribution": "uniform"}, "class_name": "VarianceScaling"}, "kernel_regularizer": null, "dilation_rate": [1, 1], "bias_constraint": null, "padding": "same", "name": "conv2d_73", "trainable": true, "kernel_constraint": null, "data_format": "channels_last", "bias_regularizer": null, "strides": [1, 1], "filters": 192}, "class_name": "Conv2D", "inbound_nodes": [[["mixed7", 0, 0, {}]]]}, {"name": "batch_normalization_73", "config": {"epsilon": 0.001, "name": "batch_normalization_73", "scale": false, "moving_mean_initializer": {"config": {}, "class_name": "Zeros"}, "gamma_regularizer": null, "gamma_initializer": {"config": {}, "class_name": "Ones"}, "beta_regularizer": null, "axis": 3, "moving_variance_initializer": {"config": {}, "class_name": "Ones"}, "gamma_constraint": null, "trainable": true, "beta_constraint": null, "center": true, "beta_initializer": {"config": {}, "class_name": "Zeros"}, "momentum": 0.99}, "class_name": "BatchNormalization", "inbound_nodes": [[["conv2d_73", 0, 0, {}]]]}, {"name": "activation_73", "config": {"trainable": true, "activation": "relu", "name": "activation_73"}, "class_name": "Activation", "inbound_nodes": [[["batch_normalization_73", 0, 0, {}]]]}, {"name": "conv2d_74", "config": {"bias_initializer": {"config": {}, "class_name": "Zeros"}, "activity_regularizer": null, "activation": "linear", "kernel_size": [1, 7], "use_bias": false, "kernel_initializer": {"config": {"mode": "fan_avg", "seed": null, "scale": 1.0, "distribution": "uniform"}, "class_name": "VarianceScaling"}, "kernel_regularizer": null, "dilation_rate": [1, 1], "bias_constraint": null, "padding": "same", "name": "conv2d_74", "trainable": true, "kernel_constraint": null, "data_format": "channels_last", "bias_regularizer": null, "strides": [1, 1], "filters": 192}, "class_name": "Conv2D", "inbound_nodes": [[["activation_73", 0, 0, {}]]]}, {"name": "batch_normalization_74", "config": {"epsilon": 0.001, "name": "batch_normalization_74", "scale": false, "moving_mean_initializer": {"config": {}, "class_name": "Zeros"}, "gamma_regularizer": null, "gamma_initializer": {"config": {}, "class_name": "Ones"}, "beta_regularizer": null, "axis": 3, "moving_variance_initializer": {"config": {}, "class_name": "Ones"}, "gamma_constraint": null, "trainable": true, "beta_constraint": null, "center": true, "beta_initializer": {"config": {}, "class_name": "Zeros"}, "momentum": 0.99}, "class_name": "BatchNormalization", "inbound_nodes": [[["conv2d_74", 0, 0, {}]]]}, {"name": "activation_74", "config": {"trainable": true, "activation": "relu", "name": "activation_74"}, "class_name": "Activation", "inbound_nodes": [[["batch_normalization_74", 0, 0, {}]]]}, {"name": "conv2d_71", "config": {"bias_initializer": {"config": {}, "class_name": "Zeros"}, "activity_regularizer": null, "activation": "linear", "kernel_size": [1, 1], "use_bias": false, "kernel_initializer": {"config": {"mode": "fan_avg", "seed": null, "scale": 1.0, "distribution": "uniform"}, "class_name": "VarianceScaling"}, "kernel_regularizer": null, "dilation_rate": [1, 1], "bias_constraint": null, "padding": "same", "name": "conv2d_71", "trainable": true, "kernel_constraint": null, "data_format": "channels_last", "bias_regularizer": null, "strides": [1, 1], "filters": 192}, "class_name": "Conv2D", "inbound_nodes": [[["mixed7", 0, 0, {}]]]}, {"name": "conv2d_75", "config": {"bias_initializer": {"config": {}, "class_name": "Zeros"}, "activity_regularizer": null, "activation": "linear", "kernel_size": [7, 1], "use_bias": false, "kernel_initializer": {"config": {"mode": "fan_avg", "seed": null, "scale": 1.0, "distribution": "uniform"}, "class_name": "VarianceScaling"}, "kernel_regularizer": null, "dilation_rate": [1, 1], "bias_constraint": null, "padding": "same", "name": "conv2d_75", "trainable": true, "kernel_constraint": null, "data_format": "channels_last", "bias_regularizer": null, "strides": [1, 1], "filters": 192}, "class_name": "Conv2D", "inbound_nodes": [[["activation_74", 0, 0, {}]]]}, {"name": "batch_normalization_71", "config": {"epsilon": 0.001, "name": "batch_normalization_71", "scale": false, "moving_mean_initializer": {"config": {}, "class_name": "Zeros"}, "gamma_regularizer": null, "gamma_initializer": {"config": {}, "class_name": "Ones"}, "beta_regularizer": null, "axis": 3, "moving_variance_initializer": {"config": {}, "class_name": "Ones"}, "gamma_constraint": null, "trainable": true, "beta_constraint": null, "center": true, "beta_initializer": {"config": {}, "class_name": "Zeros"}, "momentum": 0.99}, "class_name": "BatchNormalization", "inbound_nodes": [[["conv2d_71", 0, 0, {}]]]}, {"name": "batch_normalization_75", "config": {"epsilon": 0.001, "name": "batch_normalization_75", "scale": false, "moving_mean_initializer": {"config": {}, "class_name": "Zeros"}, "gamma_regularizer": null, "gamma_initializer": {"config": {}, "class_name": "Ones"}, "beta_regularizer": null, "axis": 3, "moving_variance_initializer": {"config": {}, "class_name": "Ones"}, "gamma_constraint": null, "trainable": true, "beta_constraint": null, "center": true, "beta_initializer": {"config": {}, "class_name": "Zeros"}, "momentum": 0.99}, "class_name": "BatchNormalization", "inbound_nodes": [[["conv2d_75", 0, 0, {}]]]}, {"name": "activation_71", "config": {"trainable": true, "activation": "relu", "name": "activation_71"}, "class_name": "Activation", "inbound_nodes": [[["batch_normalization_71", 0, 0, {}]]]}, {"name": "activation_75", "config": {"trainable": true, "activation": "relu", "name": "activation_75"}, "class_name": "Activation", "inbound_nodes": [[["batch_normalization_75", 0, 0, {}]]]}, {"name": "conv2d_72", "config": {"bias_initializer": {"config": {}, "class_name": "Zeros"}, "activity_regularizer": null, "activation": "linear", "kernel_size": [3, 3], "use_bias": false, "kernel_initializer": {"config": {"mode": "fan_avg", "seed": null, "scale": 1.0, "distribution": "uniform"}, "class_name": "VarianceScaling"}, "kernel_regularizer": null, "dilation_rate": [1, 1], "bias_constraint": null, "padding": "valid", "name": "conv2d_72", "trainable": true, "kernel_constraint": null, "data_format": "channels_last", "bias_regularizer": null, "strides": [2, 2], "filters": 320}, "class_name": "Conv2D", "inbound_nodes": [[["activation_71", 0, 0, {}]]]}, {"name": "conv2d_76", "config": {"bias_initializer": {"config": {}, "class_name": "Zeros"}, "activity_regularizer": null, "activation": "linear", "kernel_size": [3, 3], "use_bias": false, "kernel_initializer": {"config": {"mode": "fan_avg", "seed": null, "scale": 1.0, "distribution": "uniform"}, "class_name": "VarianceScaling"}, "kernel_regularizer": null, "dilation_rate": [1, 1], "bias_constraint": null, "padding": "valid", "name": "conv2d_76", "trainable": true, "kernel_constraint": null, "data_format": "channels_last", "bias_regularizer": null, "strides": [2, 2], "filters": 192}, "class_name": "Conv2D", "inbound_nodes": [[["activation_75", 0, 0, {}]]]}, {"name": "batch_normalization_72", "config": {"epsilon": 0.001, "name": "batch_normalization_72", "scale": false, "moving_mean_initializer": {"config": {}, "class_name": "Zeros"}, "gamma_regularizer": null, "gamma_initializer": {"config": {}, "class_name": "Ones"}, "beta_regularizer": null, "axis": 3, "moving_variance_initializer": {"config": {}, "class_name": "Ones"}, "gamma_constraint": null, "trainable": true, "beta_constraint": null, "center": true, "beta_initializer": {"config": {}, "class_name": "Zeros"}, "momentum": 0.99}, "class_name": "BatchNormalization", "inbound_nodes": [[["conv2d_72", 0, 0, {}]]]}, {"name": "batch_normalization_76", "config": {"epsilon": 0.001, "name": "batch_normalization_76", "scale": false, "moving_mean_initializer": {"config": {}, "class_name": "Zeros"}, "gamma_regularizer": null, "gamma_initializer": {"config": {}, "class_name": "Ones"}, "beta_regularizer": null, "axis": 3, "moving_variance_initializer": {"config": {}, "class_name": "Ones"}, "gamma_constraint": null, "trainable": true, "beta_constraint": null, "center": true, "beta_initializer": {"config": {}, "class_name": "Zeros"}, "momentum": 0.99}, "class_name": "BatchNormalization", "inbound_nodes": [[["conv2d_76", 0, 0, {}]]]}, {"name": "activation_72", "config": {"trainable": true, "activation": "relu", "name": "activation_72"}, "class_name": "Activation", "inbound_nodes": [[["batch_normalization_72", 0, 0, {}]]]}, {"name": "activation_76", "config": {"trainable": true, "activation": "relu", "name": "activation_76"}, "class_name": "Activation", "inbound_nodes": [[["batch_normalization_76", 0, 0, {}]]]}, {"name": "max_pooling2d_4", "config": {"name": "max_pooling2d_4", "pool_size": [3, 3], "data_format": "channels_last", "trainable": true, "strides": [2, 2], "padding": "valid"}, "class_name": "MaxPooling2D", "inbound_nodes": [[["mixed7", 0, 0, {}]]]}, {"name": "mixed8", "config": {"trainable": true, "name": "mixed8", "axis": 3}, "class_name": "Concatenate", "inbound_nodes": [[["activation_72", 0, 0, {}], ["activation_76", 0, 0, {}], ["max_pooling2d_4", 0, 0, {}]]]}, {"name": "conv2d_81", "config": {"bias_initializer": {"config": {}, "class_name": "Zeros"}, "activity_regularizer": null, "activation": "linear", "kernel_size": [1, 1], "use_bias": false, "kernel_initializer": {"config": {"mode": "fan_avg", "seed": null, "scale": 1.0, "distribution": "uniform"}, "class_name": "VarianceScaling"}, "kernel_regularizer": null, "dilation_rate": [1, 1], "bias_constraint": null, "padding": "same", "name": "conv2d_81", "trainable": true, "kernel_constraint": null, "data_format": "channels_last", "bias_regularizer": null, "strides": [1, 1], "filters": 448}, "class_name": "Conv2D", "inbound_nodes": [[["mixed8", 0, 0, {}]]]}, {"name": "batch_normalization_81", "config": {"epsilon": 0.001, "name": "batch_normalization_81", "scale": false, "moving_mean_initializer": {"config": {}, "class_name": "Zeros"}, "gamma_regularizer": null, "gamma_initializer": {"config": {}, "class_name": "Ones"}, "beta_regularizer": null, "axis": 3, "moving_variance_initializer": {"config": {}, "class_name": "Ones"}, "gamma_constraint": null, "trainable": true, "beta_constraint": null, "center": true, "beta_initializer": {"config": {}, "class_name": "Zeros"}, "momentum": 0.99}, "class_name": "BatchNormalization", "inbound_nodes": [[["conv2d_81", 0, 0, {}]]]}, {"name": "activation_81", "config": {"trainable": true, "activation": "relu", "name": "activation_81"}, "class_name": "Activation", "inbound_nodes": [[["batch_normalization_81", 0, 0, {}]]]}, {"name": "conv2d_78", "config": {"bias_initializer": {"config": {}, "class_name": "Zeros"}, "activity_regularizer": null, "activation": "linear", "kernel_size": [1, 1], "use_bias": false, "kernel_initializer": {"config": {"mode": "fan_avg", "seed": null, "scale": 1.0, "distribution": "uniform"}, "class_name": "VarianceScaling"}, "kernel_regularizer": null, "dilation_rate": [1, 1], "bias_constraint": null, "padding": "same", "name": "conv2d_78", "trainable": true, "kernel_constraint": null, "data_format": "channels_last", "bias_regularizer": null, "strides": [1, 1], "filters": 384}, "class_name": "Conv2D", "inbound_nodes": [[["mixed8", 0, 0, {}]]]}, {"name": "conv2d_82", "config": {"bias_initializer": {"config": {}, "class_name": "Zeros"}, "activity_regularizer": null, "activation": "linear", "kernel_size": [3, 3], "use_bias": false, "kernel_initializer": {"config": {"mode": "fan_avg", "seed": null, "scale": 1.0, "distribution": "uniform"}, "class_name": "VarianceScaling"}, "kernel_regularizer": null, "dilation_rate": [1, 1], "bias_constraint": null, "padding": "same", "name": "conv2d_82", "trainable": true, "kernel_constraint": null, "data_format": "channels_last", "bias_regularizer": null, "strides": [1, 1], "filters": 384}, "class_name": "Conv2D", "inbound_nodes": [[["activation_81", 0, 0, {}]]]}, {"name": "batch_normalization_78", "config": {"epsilon": 0.001, "name": "batch_normalization_78", "scale": false, "moving_mean_initializer": {"config": {}, "class_name": "Zeros"}, "gamma_regularizer": null, "gamma_initializer": {"config": {}, "class_name": "Ones"}, "beta_regularizer": null, "axis": 3, "moving_variance_initializer": {"config": {}, "class_name": "Ones"}, "gamma_constraint": null, "trainable": true, "beta_constraint": null, "center": true, "beta_initializer": {"config": {}, "class_name": "Zeros"}, "momentum": 0.99}, "class_name": "BatchNormalization", "inbound_nodes": [[["conv2d_78", 0, 0, {}]]]}, {"name": "batch_normalization_82", "config": {"epsilon": 0.001, "name": "batch_normalization_82", "scale": false, "moving_mean_initializer": {"config": {}, "class_name": "Zeros"}, "gamma_regularizer": null, "gamma_initializer": {"config": {}, "class_name": "Ones"}, "beta_regularizer": null, "axis": 3, "moving_variance_initializer": {"config": {}, "class_name": "Ones"}, "gamma_constraint": null, "trainable": true, "beta_constraint": null, "center": true, "beta_initializer": {"config": {}, "class_name": "Zeros"}, "momentum": 0.99}, "class_name": "BatchNormalization", "inbound_nodes": [[["conv2d_82", 0, 0, {}]]]}, {"name": "activation_78", "config": {"trainable": true, "activation": "relu", "name": "activation_78"}, "class_name": "Activation", "inbound_nodes": [[["batch_normalization_78", 0, 0, {}]]]}, {"name": "activation_82", "config": {"trainable": true, "activation": "relu", "name": "activation_82"}, "class_name": "Activation", "inbound_nodes": [[["batch_normalization_82", 0, 0, {}]]]}, {"name": "conv2d_79", "config": {"bias_initializer": {"config": {}, "class_name": "Zeros"}, "activity_regularizer": null, "activation": "linear", "kernel_size": [1, 3], "use_bias": false, "kernel_initializer": {"config": {"mode": "fan_avg", "seed": null, "scale": 1.0, "distribution": "uniform"}, "class_name": "VarianceScaling"}, "kernel_regularizer": null, "dilation_rate": [1, 1], "bias_constraint": null, "padding": "same", "name": "conv2d_79", "trainable": true, "kernel_constraint": null, "data_format": "channels_last", "bias_regularizer": null, "strides": [1, 1], "filters": 384}, "class_name": "Conv2D", "inbound_nodes": [[["activation_78", 0, 0, {}]]]}, {"name": "conv2d_80", "config": {"bias_initializer": {"config": {}, "class_name": "Zeros"}, "activity_regularizer": null, "activation": "linear", "kernel_size": [3, 1], "use_bias": false, "kernel_initializer": {"config": {"mode": "fan_avg", "seed": null, "scale": 1.0, "distribution": "uniform"}, "class_name": "VarianceScaling"}, "kernel_regularizer": null, "dilation_rate": [1, 1], "bias_constraint": null, "padding": "same", "name": "conv2d_80", "trainable": true, "kernel_constraint": null, "data_format": "channels_last", "bias_regularizer": null, "strides": [1, 1], "filters": 384}, "class_name": "Conv2D", "inbound_nodes": [[["activation_78", 0, 0, {}]]]}, {"name": "conv2d_83", "config": {"bias_initializer": {"config": {}, "class_name": "Zeros"}, "activity_regularizer": null, "activation": "linear", "kernel_size": [1, 3], "use_bias": false, "kernel_initializer": {"config": {"mode": "fan_avg", "seed": null, "scale": 1.0, "distribution": "uniform"}, "class_name": "VarianceScaling"}, "kernel_regularizer": null, "dilation_rate": [1, 1], "bias_constraint": null, "padding": "same", "name": "conv2d_83", "trainable": true, "kernel_constraint": null, "data_format": "channels_last", "bias_regularizer": null, "strides": [1, 1], "filters": 384}, "class_name": "Conv2D", "inbound_nodes": [[["activation_82", 0, 0, {}]]]}, {"name": "conv2d_84", "config": {"bias_initializer": {"config": {}, "class_name": "Zeros"}, "activity_regularizer": null, "activation": "linear", "kernel_size": [3, 1], "use_bias": false, "kernel_initializer": {"config": {"mode": "fan_avg", "seed": null, "scale": 1.0, "distribution": "uniform"}, "class_name": "VarianceScaling"}, "kernel_regularizer": null, "dilation_rate": [1, 1], "bias_constraint": null, "padding": "same", "name": "conv2d_84", "trainable": true, "kernel_constraint": null, "data_format": "channels_last", "bias_regularizer": null, "strides": [1, 1], "filters": 384}, "class_name": "Conv2D", "inbound_nodes": [[["activation_82", 0, 0, {}]]]}, {"name": "average_pooling2d_8", "config": {"name": "average_pooling2d_8", "pool_size": [3, 3], "data_format": "channels_last", "trainable": true, "strides": [1, 1], "padding": "same"}, "class_name": "AveragePooling2D", "inbound_nodes": [[["mixed8", 0, 0, {}]]]}, {"name": "conv2d_77", "config": {"bias_initializer": {"config": {}, "class_name": "Zeros"}, "activity_regularizer": null, "activation": "linear", "kernel_size": [1, 1], "use_bias": false, "kernel_initializer": {"config": {"mode": "fan_avg", "seed": null, "scale": 1.0, "distribution": "uniform"}, "class_name": "VarianceScaling"}, "kernel_regularizer": null, "dilation_rate": [1, 1], "bias_constraint": null, "padding": "same", "name": "conv2d_77", "trainable": true, "kernel_constraint": null, "data_format": "channels_last", "bias_regularizer": null, "strides": [1, 1], "filters": 320}, "class_name": "Conv2D", "inbound_nodes": [[["mixed8", 0, 0, {}]]]}, {"name": "batch_normalization_79", "config": {"epsilon": 0.001, "name": "batch_normalization_79", "scale": false, "moving_mean_initializer": {"config": {}, "class_name": "Zeros"}, "gamma_regularizer": null, "gamma_initializer": {"config": {}, "class_name": "Ones"}, "beta_regularizer": null, "axis": 3, "moving_variance_initializer": {"config": {}, "class_name": "Ones"}, "gamma_constraint": null, "trainable": true, "beta_constraint": null, "center": true, "beta_initializer": {"config": {}, "class_name": "Zeros"}, "momentum": 0.99}, "class_name": "BatchNormalization", "inbound_nodes": [[["conv2d_79", 0, 0, {}]]]}, {"name": "batch_normalization_80", "config": {"epsilon": 0.001, "name": "batch_normalization_80", "scale": false, "moving_mean_initializer": {"config": {}, "class_name": "Zeros"}, "gamma_regularizer": null, "gamma_initializer": {"config": {}, "class_name": "Ones"}, "beta_regularizer": null, "axis": 3, "moving_variance_initializer": {"config": {}, "class_name": "Ones"}, "gamma_constraint": null, "trainable": true, "beta_constraint": null, "center": true, "beta_initializer": {"config": {}, "class_name": "Zeros"}, "momentum": 0.99}, "class_name": "BatchNormalization", "inbound_nodes": [[["conv2d_80", 0, 0, {}]]]}, {"name": "batch_normalization_83", "config": {"epsilon": 0.001, "name": "batch_normalization_83", "scale": false, "moving_mean_initializer": {"config": {}, "class_name": "Zeros"}, "gamma_regularizer": null, "gamma_initializer": {"config": {}, "class_name": "Ones"}, "beta_regularizer": null, "axis": 3, "moving_variance_initializer": {"config": {}, "class_name": "Ones"}, "gamma_constraint": null, "trainable": true, "beta_constraint": null, "center": true, "beta_initializer": {"config": {}, "class_name": "Zeros"}, "momentum": 0.99}, "class_name": "BatchNormalization", "inbound_nodes": [[["conv2d_83", 0, 0, {}]]]}, {"name": "batch_normalization_84", "config": {"epsilon": 0.001, "name": "batch_normalization_84", "scale": false, "moving_mean_initializer": {"config": {}, "class_name": "Zeros"}, "gamma_regularizer": null, "gamma_initializer": {"config": {}, "class_name": "Ones"}, "beta_regularizer": null, "axis": 3, "moving_variance_initializer": {"config": {}, "class_name": "Ones"}, "gamma_constraint": null, "trainable": true, "beta_constraint": null, "center": true, "beta_initializer": {"config": {}, "class_name": "Zeros"}, "momentum": 0.99}, "class_name": "BatchNormalization", "inbound_nodes": [[["conv2d_84", 0, 0, {}]]]}, {"name": "conv2d_85", "config": {"bias_initializer": {"config": {}, "class_name": "Zeros"}, "activity_regularizer": null, "activation": "linear", "kernel_size": [1, 1], "use_bias": false, "kernel_initializer": {"config": {"mode": "fan_avg", "seed": null, "scale": 1.0, "distribution": "uniform"}, "class_name": "VarianceScaling"}, "kernel_regularizer": null, "dilation_rate": [1, 1], "bias_constraint": null, "padding": "same", "name": "conv2d_85", "trainable": true, "kernel_constraint": null, "data_format": "channels_last", "bias_regularizer": null, "strides": [1, 1], "filters": 192}, "class_name": "Conv2D", "inbound_nodes": [[["average_pooling2d_8", 0, 0, {}]]]}, {"name": "batch_normalization_77", "config": {"epsilon": 0.001, "name": "batch_normalization_77", "scale": false, "moving_mean_initializer": {"config": {}, "class_name": "Zeros"}, "gamma_regularizer": null, "gamma_initializer": {"config": {}, "class_name": "Ones"}, "beta_regularizer": null, "axis": 3, "moving_variance_initializer": {"config": {}, "class_name": "Ones"}, "gamma_constraint": null, "trainable": true, "beta_constraint": null, "center": true, "beta_initializer": {"config": {}, "class_name": "Zeros"}, "momentum": 0.99}, "class_name": "BatchNormalization", "inbound_nodes": [[["conv2d_77", 0, 0, {}]]]}, {"name": "activation_79", "config": {"trainable": true, "activation": "relu", "name": "activation_79"}, "class_name": "Activation", "inbound_nodes": [[["batch_normalization_79", 0, 0, {}]]]}, {"name": "activation_80", "config": {"trainable": true, "activation": "relu", "name": "activation_80"}, "class_name": "Activation", "inbound_nodes": [[["batch_normalization_80", 0, 0, {}]]]}, {"name": "activation_83", "config": {"trainable": true, "activation": "relu", "name": "activation_83"}, "class_name": "Activation", "inbound_nodes": [[["batch_normalization_83", 0, 0, {}]]]}, {"name": "activation_84", "config": {"trainable": true, "activation": "relu", "name": "activation_84"}, "class_name": "Activation", "inbound_nodes": [[["batch_normalization_84", 0, 0, {}]]]}, {"name": "batch_normalization_85", "config": {"epsilon": 0.001, "name": "batch_normalization_85", "scale": false, "moving_mean_initializer": {"config": {}, "class_name": "Zeros"}, "gamma_regularizer": null, "gamma_initializer": {"config": {}, "class_name": "Ones"}, "beta_regularizer": null, "axis": 3, "moving_variance_initializer": {"config": {}, "class_name": "Ones"}, "gamma_constraint": null, "trainable": true, "beta_constraint": null, "center": true, "beta_initializer": {"config": {}, "class_name": "Zeros"}, "momentum": 0.99}, "class_name": "BatchNormalization", "inbound_nodes": [[["conv2d_85", 0, 0, {}]]]}, {"name": "activation_77", "config": {"trainable": true, "activation": "relu", "name": "activation_77"}, "class_name": "Activation", "inbound_nodes": [[["batch_normalization_77", 0, 0, {}]]]}, {"name": "mixed9_0", "config": {"trainable": true, "name": "mixed9_0", "axis": 3}, "class_name": "Concatenate", "inbound_nodes": [[["activation_79", 0, 0, {}], ["activation_80", 0, 0, {}]]]}, {"name": "concatenate_1", "config": {"trainable": true, "name": "concatenate_1", "axis": 3}, "class_name": "Concatenate", "inbound_nodes": [[["activation_83", 0, 0, {}], ["activation_84", 0, 0, {}]]]}, {"name": "activation_85", "config": {"trainable": true, "activation": "relu", "name": "activation_85"}, "class_name": "Activation", "inbound_nodes": [[["batch_normalization_85", 0, 0, {}]]]}, {"name": "mixed9", "config": {"trainable": true, "name": "mixed9", "axis": 3}, "class_name": "Concatenate", "inbound_nodes": [[["activation_77", 0, 0, {}], ["mixed9_0", 0, 0, {}], ["concatenate_1", 0, 0, {}], ["activation_85", 0, 0, {}]]]}, {"name": "conv2d_90", "config": {"bias_initializer": {"config": {}, "class_name": "Zeros"}, "activity_regularizer": null, "activation": "linear", "kernel_size": [1, 1], "use_bias": false, "kernel_initializer": {"config": {"mode": "fan_avg", "seed": null, "scale": 1.0, "distribution": "uniform"}, "class_name": "VarianceScaling"}, "kernel_regularizer": null, "dilation_rate": [1, 1], "bias_constraint": null, "padding": "same", "name": "conv2d_90", "trainable": true, "kernel_constraint": null, "data_format": "channels_last", "bias_regularizer": null, "strides": [1, 1], "filters": 448}, "class_name": "Conv2D", "inbound_nodes": [[["mixed9", 0, 0, {}]]]}, {"name": "batch_normalization_90", "config": {"epsilon": 0.001, "name": "batch_normalization_90", "scale": false, "moving_mean_initializer": {"config": {}, "class_name": "Zeros"}, "gamma_regularizer": null, "gamma_initializer": {"config": {}, "class_name": "Ones"}, "beta_regularizer": null, "axis": 3, "moving_variance_initializer": {"config": {}, "class_name": "Ones"}, "gamma_constraint": null, "trainable": true, "beta_constraint": null, "center": true, "beta_initializer": {"config": {}, "class_name": "Zeros"}, "momentum": 0.99}, "class_name": "BatchNormalization", "inbound_nodes": [[["conv2d_90", 0, 0, {}]]]}, {"name": "activation_90", "config": {"trainable": true, "activation": "relu", "name": "activation_90"}, "class_name": "Activation", "inbound_nodes": [[["batch_normalization_90", 0, 0, {}]]]}, {"name": "conv2d_87", "config": {"bias_initializer": {"config": {}, "class_name": "Zeros"}, "activity_regularizer": null, "activation": "linear", "kernel_size": [1, 1], "use_bias": false, "kernel_initializer": {"config": {"mode": "fan_avg", "seed": null, "scale": 1.0, "distribution": "uniform"}, "class_name": "VarianceScaling"}, "kernel_regularizer": null, "dilation_rate": [1, 1], "bias_constraint": null, "padding": "same", "name": "conv2d_87", "trainable": true, "kernel_constraint": null, "data_format": "channels_last", "bias_regularizer": null, "strides": [1, 1], "filters": 384}, "class_name": "Conv2D", "inbound_nodes": [[["mixed9", 0, 0, {}]]]}, {"name": "conv2d_91", "config": {"bias_initializer": {"config": {}, "class_name": "Zeros"}, "activity_regularizer": null, "activation": "linear", "kernel_size": [3, 3], "use_bias": false, "kernel_initializer": {"config": {"mode": "fan_avg", "seed": null, "scale": 1.0, "distribution": "uniform"}, "class_name": "VarianceScaling"}, "kernel_regularizer": null, "dilation_rate": [1, 1], "bias_constraint": null, "padding": "same", "name": "conv2d_91", "trainable": true, "kernel_constraint": null, "data_format": "channels_last", "bias_regularizer": null, "strides": [1, 1], "filters": 384}, "class_name": "Conv2D", "inbound_nodes": [[["activation_90", 0, 0, {}]]]}, {"name": "batch_normalization_87", "config": {"epsilon": 0.001, "name": "batch_normalization_87", "scale": false, "moving_mean_initializer": {"config": {}, "class_name": "Zeros"}, "gamma_regularizer": null, "gamma_initializer": {"config": {}, "class_name": "Ones"}, "beta_regularizer": null, "axis": 3, "moving_variance_initializer": {"config": {}, "class_name": "Ones"}, "gamma_constraint": null, "trainable": true, "beta_constraint": null, "center": true, "beta_initializer": {"config": {}, "class_name": "Zeros"}, "momentum": 0.99}, "class_name": "BatchNormalization", "inbound_nodes": [[["conv2d_87", 0, 0, {}]]]}, {"name": "batch_normalization_91", "config": {"epsilon": 0.001, "name": "batch_normalization_91", "scale": false, "moving_mean_initializer": {"config": {}, "class_name": "Zeros"}, "gamma_regularizer": null, "gamma_initializer": {"config": {}, "class_name": "Ones"}, "beta_regularizer": null, "axis": 3, "moving_variance_initializer": {"config": {}, "class_name": "Ones"}, "gamma_constraint": null, "trainable": true, "beta_constraint": null, "center": true, "beta_initializer": {"config": {}, "class_name": "Zeros"}, "momentum": 0.99}, "class_name": "BatchNormalization", "inbound_nodes": [[["conv2d_91", 0, 0, {}]]]}, {"name": "activation_87", "config": {"trainable": true, "activation": "relu", "name": "activation_87"}, "class_name": "Activation", "inbound_nodes": [[["batch_normalization_87", 0, 0, {}]]]}, {"name": "activation_91", "config": {"trainable": true, "activation": "relu", "name": "activation_91"}, "class_name": "Activation", "inbound_nodes": [[["batch_normalization_91", 0, 0, {}]]]}, {"name": "conv2d_88", "config": {"bias_initializer": {"config": {}, "class_name": "Zeros"}, "activity_regularizer": null, "activation": "linear", "kernel_size": [1, 3], "use_bias": false, "kernel_initializer": {"config": {"mode": "fan_avg", "seed": null, "scale": 1.0, "distribution": "uniform"}, "class_name": "VarianceScaling"}, "kernel_regularizer": null, "dilation_rate": [1, 1], "bias_constraint": null, "padding": "same", "name": "conv2d_88", "trainable": true, "kernel_constraint": null, "data_format": "channels_last", "bias_regularizer": null, "strides": [1, 1], "filters": 384}, "class_name": "Conv2D", "inbound_nodes": [[["activation_87", 0, 0, {}]]]}, {"name": "conv2d_89", "config": {"bias_initializer": {"config": {}, "class_name": "Zeros"}, "activity_regularizer": null, "activation": "linear", "kernel_size": [3, 1], "use_bias": false, "kernel_initializer": {"config": {"mode": "fan_avg", "seed": null, "scale": 1.0, "distribution": "uniform"}, "class_name": "VarianceScaling"}, "kernel_regularizer": null, "dilation_rate": [1, 1], "bias_constraint": null, "padding": "same", "name": "conv2d_89", "trainable": true, "kernel_constraint": null, "data_format": "channels_last", "bias_regularizer": null, "strides": [1, 1], "filters": 384}, "class_name": "Conv2D", "inbound_nodes": [[["activation_87", 0, 0, {}]]]}, {"name": "conv2d_92", "config": {"bias_initializer": {"config": {}, "class_name": "Zeros"}, "activity_regularizer": null, "activation": "linear", "kernel_size": [1, 3], "use_bias": false, "kernel_initializer": {"config": {"mode": "fan_avg", "seed": null, "scale": 1.0, "distribution": "uniform"}, "class_name": "VarianceScaling"}, "kernel_regularizer": null, "dilation_rate": [1, 1], "bias_constraint": null, "padding": "same", "name": "conv2d_92", "trainable": true, "kernel_constraint": null, "data_format": "channels_last", "bias_regularizer": null, "strides": [1, 1], "filters": 384}, "class_name": "Conv2D", "inbound_nodes": [[["activation_91", 0, 0, {}]]]}, {"name": "conv2d_93", "config": {"bias_initializer": {"config": {}, "class_name": "Zeros"}, "activity_regularizer": null, "activation": "linear", "kernel_size": [3, 1], "use_bias": false, "kernel_initializer": {"config": {"mode": "fan_avg", "seed": null, "scale": 1.0, "distribution": "uniform"}, "class_name": "VarianceScaling"}, "kernel_regularizer": null, "dilation_rate": [1, 1], "bias_constraint": null, "padding": "same", "name": "conv2d_93", "trainable": true, "kernel_constraint": null, "data_format": "channels_last", "bias_regularizer": null, "strides": [1, 1], "filters": 384}, "class_name": "Conv2D", "inbound_nodes": [[["activation_91", 0, 0, {}]]]}, {"name": "average_pooling2d_9", "config": {"name": "average_pooling2d_9", "pool_size": [3, 3], "data_format": "channels_last", "trainable": true, "strides": [1, 1], "padding": "same"}, "class_name": "AveragePooling2D", "inbound_nodes": [[["mixed9", 0, 0, {}]]]}, {"name": "conv2d_86", "config": {"bias_initializer": {"config": {}, "class_name": "Zeros"}, "activity_regularizer": null, "activation": "linear", "kernel_size": [1, 1], "use_bias": false, "kernel_initializer": {"config": {"mode": "fan_avg", "seed": null, "scale": 1.0, "distribution": "uniform"}, "class_name": "VarianceScaling"}, "kernel_regularizer": null, "dilation_rate": [1, 1], "bias_constraint": null, "padding": "same", "name": "conv2d_86", "trainable": true, "kernel_constraint": null, "data_format": "channels_last", "bias_regularizer": null, "strides": [1, 1], "filters": 320}, "class_name": "Conv2D", "inbound_nodes": [[["mixed9", 0, 0, {}]]]}, {"name": "batch_normalization_88", "config": {"epsilon": 0.001, "name": "batch_normalization_88", "scale": false, "moving_mean_initializer": {"config": {}, "class_name": "Zeros"}, "gamma_regularizer": null, "gamma_initializer": {"config": {}, "class_name": "Ones"}, "beta_regularizer": null, "axis": 3, "moving_variance_initializer": {"config": {}, "class_name": "Ones"}, "gamma_constraint": null, "trainable": true, "beta_constraint": null, "center": true, "beta_initializer": {"config": {}, "class_name": "Zeros"}, "momentum": 0.99}, "class_name": "BatchNormalization", "inbound_nodes": [[["conv2d_88", 0, 0, {}]]]}, {"name": "batch_normalization_89", "config": {"epsilon": 0.001, "name": "batch_normalization_89", "scale": false, "moving_mean_initializer": {"config": {}, "class_name": "Zeros"}, "gamma_regularizer": null, "gamma_initializer": {"config": {}, "class_name": "Ones"}, "beta_regularizer": null, "axis": 3, "moving_variance_initializer": {"config": {}, "class_name": "Ones"}, "gamma_constraint": null, "trainable": true, "beta_constraint": null, "center": true, "beta_initializer": {"config": {}, "class_name": "Zeros"}, "momentum": 0.99}, "class_name": "BatchNormalization", "inbound_nodes": [[["conv2d_89", 0, 0, {}]]]}, {"name": "batch_normalization_92", "config": {"epsilon": 0.001, "name": "batch_normalization_92", "scale": false, "moving_mean_initializer": {"config": {}, "class_name": "Zeros"}, "gamma_regularizer": null, "gamma_initializer": {"config": {}, "class_name": "Ones"}, "beta_regularizer": null, "axis": 3, "moving_variance_initializer": {"config": {}, "class_name": "Ones"}, "gamma_constraint": null, "trainable": true, "beta_constraint": null, "center": true, "beta_initializer": {"config": {}, "class_name": "Zeros"}, "momentum": 0.99}, "class_name": "BatchNormalization", "inbound_nodes": [[["conv2d_92", 0, 0, {}]]]}, {"name": "batch_normalization_93", "config": {"epsilon": 0.001, "name": "batch_normalization_93", "scale": false, "moving_mean_initializer": {"config": {}, "class_name": "Zeros"}, "gamma_regularizer": null, "gamma_initializer": {"config": {}, "class_name": "Ones"}, "beta_regularizer": null, "axis": 3, "moving_variance_initializer": {"config": {}, "class_name": "Ones"}, "gamma_constraint": null, "trainable": true, "beta_constraint": null, "center": true, "beta_initializer": {"config": {}, "class_name": "Zeros"}, "momentum": 0.99}, "class_name": "BatchNormalization", "inbound_nodes": [[["conv2d_93", 0, 0, {}]]]}, {"name": "conv2d_94", "config": {"bias_initializer": {"config": {}, "class_name": "Zeros"}, "activity_regularizer": null, "activation": "linear", "kernel_size": [1, 1], "use_bias": false, "kernel_initializer": {"config": {"mode": "fan_avg", "seed": null, "scale": 1.0, "distribution": "uniform"}, "class_name": "VarianceScaling"}, "kernel_regularizer": null, "dilation_rate": [1, 1], "bias_constraint": null, "padding": "same", "name": "conv2d_94", "trainable": true, "kernel_constraint": null, "data_format": "channels_last", "bias_regularizer": null, "strides": [1, 1], "filters": 192}, "class_name": "Conv2D", "inbound_nodes": [[["average_pooling2d_9", 0, 0, {}]]]}, {"name": "batch_normalization_86", "config": {"epsilon": 0.001, "name": "batch_normalization_86", "scale": false, "moving_mean_initializer": {"config": {}, "class_name": "Zeros"}, "gamma_regularizer": null, "gamma_initializer": {"config": {}, "class_name": "Ones"}, "beta_regularizer": null, "axis": 3, "moving_variance_initializer": {"config": {}, "class_name": "Ones"}, "gamma_constraint": null, "trainable": true, "beta_constraint": null, "center": true, "beta_initializer": {"config": {}, "class_name": "Zeros"}, "momentum": 0.99}, "class_name": "BatchNormalization", "inbound_nodes": [[["conv2d_86", 0, 0, {}]]]}, {"name": "activation_88", "config": {"trainable": true, "activation": "relu", "name": "activation_88"}, "class_name": "Activation", "inbound_nodes": [[["batch_normalization_88", 0, 0, {}]]]}, {"name": "activation_89", "config": {"trainable": true, "activation": "relu", "name": "activation_89"}, "class_name": "Activation", "inbound_nodes": [[["batch_normalization_89", 0, 0, {}]]]}, {"name": "activation_92", "config": {"trainable": true, "activation": "relu", "name": "activation_92"}, "class_name": "Activation", "inbound_nodes": [[["batch_normalization_92", 0, 0, {}]]]}, {"name": "activation_93", "config": {"trainable": true, "activation": "relu", "name": "activation_93"}, "class_name": "Activation", "inbound_nodes": [[["batch_normalization_93", 0, 0, {}]]]}, {"name": "batch_normalization_94", "config": {"epsilon": 0.001, "name": "batch_normalization_94", "scale": false, "moving_mean_initializer": {"config": {}, "class_name": "Zeros"}, "gamma_regularizer": null, "gamma_initializer": {"config": {}, "class_name": "Ones"}, "beta_regularizer": null, "axis": 3, "moving_variance_initializer": {"config": {}, "class_name": "Ones"}, "gamma_constraint": null, "trainable": true, "beta_constraint": null, "center": true, "beta_initializer": {"config": {}, "class_name": "Zeros"}, "momentum": 0.99}, "class_name": "BatchNormalization", "inbound_nodes": [[["conv2d_94", 0, 0, {}]]]}, {"name": "activation_86", "config": {"trainable": true, "activation": "relu", "name": "activation_86"}, "class_name": "Activation", "inbound_nodes": [[["batch_normalization_86", 0, 0, {}]]]}, {"name": "mixed9_1", "config": {"trainable": true, "name": "mixed9_1", "axis": 3}, "class_name": "Concatenate", "inbound_nodes": [[["activation_88", 0, 0, {}], ["activation_89", 0, 0, {}]]]}, {"name": "concatenate_2", "config": {"trainable": true, "name": "concatenate_2", "axis": 3}, "class_name": "Concatenate", "inbound_nodes": [[["activation_92", 0, 0, {}], ["activation_93", 0, 0, {}]]]}, {"name": "activation_94", "config": {"trainable": true, "activation": "relu", "name": "activation_94"}, "class_name": "Activation", "inbound_nodes": [[["batch_normalization_94", 0, 0, {}]]]}, {"name": "mixed10", "config": {"trainable": true, "name": "mixed10", "axis": 3}, "class_name": "Concatenate", "inbound_nodes": [[["activation_86", 0, 0, {}], ["mixed9_1", 0, 0, {}], ["concatenate_2", 0, 0, {}], ["activation_94", 0, 0, {}]]]}, {"name": "global_average_pooling2d_1", "config": {"data_format": "channels_last", "trainable": true, "name": "global_average_pooling2d_1"}, "class_name": "GlobalAveragePooling2D", "inbound_nodes": [[["mixed10", 0, 0, {}]]]}, {"name": "dense_1", "config": {"bias_initializer": {"config": {}, "class_name": "Zeros"}, "activity_regularizer": null, "activation": "relu", "bias_regularizer": null, "use_bias": true, "kernel_initializer": {"config": {"mode": "fan_avg", "seed": null, "scale": 1.0, "distribution": "uniform"}, "class_name": "VarianceScaling"}, "kernel_regularizer": null, "units": 1024, "bias_constraint": null, "name": "dense_1", "kernel_constraint": null, "trainable": true}, "class_name": "Dense", "inbound_nodes": [[["global_average_pooling2d_1", 0, 0, {}]]]}, {"name": "dense_2", "config": {"bias_initializer": {"config": {}, "class_name": "Zeros"}, "activity_regularizer": null, "activation": "softmax", "bias_regularizer": null, "use_bias": true, "kernel_initializer": {"config": {"mode": "fan_avg", "seed": null, "scale": 1.0, "distribution": "uniform"}, "class_name": "VarianceScaling"}, "kernel_regularizer": null, "units": 200, "bias_constraint": null, "name": "dense_2", "kernel_constraint": null, "trainable": true}, "class_name": "Dense", "inbound_nodes": [[["dense_1", 0, 0, {}]]]}], "input_layers": [["input_1", 0, 0]]}, "class_name": "Model"}